weights_mouth.pt (torch, 205391 bytes, 11 tensors)

conv1.weight f4 [8, 3, 3, 3]
0	0x3e225cbd	0.1585569
1	0x3e2dd53d	0.16975875
2	0xbdc0fdac	-0.09423384
3	0xbccb0a96	-0.024785321
4	0x3c27d28b	0.010243068
5	0xbd8e8ba0	-0.06960225
6	0xbd843785	-0.06455902
7	0xbde9599c	-0.11394045
8	0xbd028f45	-0.031874914
9	0x3ce75747	0.02823986
10	0xbdb01ef2	-0.08599652
11	0xbdaecbcb	-0.08534964
12	0x3e198b67	0.14994584
13	0xbd38731a	-0.045031644
14	0x3ded4c6f	0.11586844
15	0xbca94111	-0.020660909
16	0xbe398845	-0.18118389
17	0xbe44daa7	-0.19224034
18	0xbdde4632	-0.108532324
19	0xbe032b4e	-0.12809488
20	0x3e2f723c	0.1713342
21	0x3c1d2b40	0.009592831
22	0xbb10181f	-0.0021987034
23	0x3d9f9f83	0.07794096
24	0x3d3ba251	0.045809094
25	0xbd00a113	-0.031403612
26	0xbcbea334	-0.02327118
27	0x3e693a69	0.22776188
28	0x3e597823	0.21237235
29	0x3e55afeb	0.20867889
30	0xbd751ba0	-0.0598408
31	0x3df65b04	0.120290786
32	0x3e71b18f	0.2360289
33	0x3e718b8d	0.2358839
34	0xbcec18d5	-0.028820435
35	0xbbf40c0b	-0.0074477247
36	0x3e29702a	0.16546693
37	0xbe18b1ca	-0.14911571
38	0x3d65ba7d	0.056086052
39	0x3da06cb9	0.07833237
40	0xbe15a1b5	-0.14612468
41	0xbe26573e	-0.16244218
42	0x3e028b62	0.12748483
43	0x3e24f297	0.16108166
44	0xbd8ffab0	-0.07030237
45	0x3d480bd6	0.048839413
46	0x3e262645	0.16225536
47	0xbd33fc96	-0.043942057
48	0x3de5f5e8	0.112285435
49	0xbd78de4b	-0.06075887
50	0x3c898ece	0.016791727
51	0x3e18cd70	0.14922118
52	0x3e60a69d	0.21938558
53	0x3e6284e4	0.22121006
54	0xbd25b35e	-0.04045426
55	0x3e06ea61	0.13175346
56	0xbd66bdfd	-0.05633353
57	0xbe3a10da	-0.18170491
58	0x3e299a89	0.16562857
59	0x3e174421	0.14772083
60	0xbda4690a	-0.08027847
61	0x3e47dea1	0.1951852
62	0x3dd416c9	0.103559084
63	0xbd046ffd	-0.032333363
64	0x3daef8c7	0.08543544
65	0xbe1b7540	-0.15181446
66	0x3d0867ff	0.033302303
67	0x3e25b170	0.16180968
68	0xbc07d97f	-0.008291601
69	0xbe57a157	-0.2105764
70	0xbe29d632	-0.16585615
71	0x3d138e99	0.036024664
72	0xbe07b1de	-0.13251445
73	0xbe08dc36	-0.13365254
74	0x3dc677f0	0.09690845
75	0x3ddbb559	0.10727949
76	0xbde92af7	-0.11385148
77	0x3e5f1e3d	0.21788879
78	0x3d1df576	0.038564168
79	0x3e0aa1d7	0.135383
80	0x3cbc0f61	0.022956552
81	0xbdcd160f	-0.10013973
82	0xbd72d88f	-0.059288558
83	0xbcb0caf4	-0.02158115
84	0x3e4de08d	0.2010519
85	0x3e03df8f	0.1287825
86	0x3e4f422f	0.20240091
87	0xbd36af23	-0.044600617
88	0x3e059f93	0.13049154
89	0x3d5fd2d0	0.054644406
90	0x3c177b41	0.009245695
91	0xbde7c8fb	-0.11317631
92	0x3cd1bedf	0.02560371
93	0xbcd6d525	-0.026224682
94	0xbc21380b	-0.009840022
95	0xbdb21306	-0.08695035
96	0xbcba1e06	-0.022719394
97	0x3d7e9a88	0.06215909
98	0x3cfe90ed	0.031074965
99	0xbe07c382	-0.13258174
100	0xbe2edd93	-0.17076711
101	0x3c20898e	0.009798421
102	0x3defc778	0.117079675
103	0xbcfb04a0	-0.030641854
104	0xbde34df4	-0.11098853
105	0x3e4d59e4	0.20053822
106	0x3d249e63	0.04019011
107	0xbda42a48	-0.08015877
108	0x3e1b6ead	0.15178938
109	0xbc9e5a57	-0.019330187
110	0x3e2b03d9	0.16700687
111	0x3e3b035a	0.18262997
112	0xbd1c4e8a	-0.03816084
113	0x3d977dfe	0.07397078
114	0x3e0bebc5	0.13664158
115	0x3c6cc556	0.014451345
116	0xbd261876	-0.04055067
117	0xbe32a6f1	-0.17446496
118	0xbe3dcb94	-0.1853469
119	0x3e128cd4	0.14311534
120	0xbe38b558	-0.18037927
121	0x3c6fb99d	0.014631656
122	0xbe2518ad	-0.16122694
123	0x3e15ebcf	0.14640735
124	0x3e2e1d74	0.17003423
125	0x3e31eb2f	0.17374872
126	0x3ca85137	0.020546539
127	0xbdbac715	-0.09120003
128	0xbde0584a	-0.1095434
129	0xbe10a9c4	-0.1412726
130	0xbe0ae412	-0.13563564
131	0x3c8ed789	0.01743676
132	0x3e01f50e	0.12691137
133	0x3d0fa1a4	0.035066262
134	0x3cd92b03	0.026509767
135	0xbd363244	-0.04448153
136	0xbde067fa	-0.10957332
137	0xbdb20226	-0.08691816
138	0x3e2c7acf	0.16843723
139	0x3c00fac9	0.007872292
140	0x3dd01b42	0.10161449
141	0xbe0d028d	-0.13770504
142	0xbb49d2b6	-0.003079576
143	0xbbf349ab	-0.0074245534
144	0xbddbca79	-0.10731978
145	0x3e2548df	0.1614108
146	0x3e0b8022	0.13623098
147	0xbde62c89	-0.11238963
148	0xbd790bd6	-0.060802303
149	0xbd337768	-0.043815047
150	0xbda6a487	-0.0813685
151	0x3d97b4e6	0.074075505
152	0xbdd2eaa7	-0.10298663
153	0xbd22571d	-0.03963386
154	0x3e43457b	0.19069473
155	0x3e179b5c	0.14805359
156	0x3dea3a73	0.114369296
157	0x3e4e86e1	0.2016864
158	0xbe26582f	-0.16244577
159	0xbde88579	-0.11353583
160	0xbdbc2d25	-0.09188298
161	0xbbd05b88	-0.0063585676
162	0xbcdc7d5c	-0.026915245
163	0x3de29c90	0.11065018
164	0xbde8804c	-0.11352596
165	0xbd98927b	-0.07449814
166	0xbd86ddc9	-0.06585271
167	0xbce6ccaa	-0.028173763
168	0xbdffdbdc	-0.12493107
169	0x3df52dbe	0.11971615
170	0x3b8472d8	0.0040420108
171	0x3cc52258	0.024064228
172	0x3e2d3ec3	0.16918473
173	0x3e380ac0	0.17972851
174	0xbe270f8e	-0.16314527
175	0xbe060669	-0.13088383
176	0xbd160ce5	-0.03663339
177	0x3e1d9912	0.15390423
178	0xbcbb7490	-0.02288273
179	0x3e17d7d6	0.14828429
180	0x3e5946a1	0.21218349
181	0x3e07f6c9	0.13277735
182	0x3e38d7b4	0.18051034
183	0x3da8f121	0.08249117
184	0x3d390032	0.045166202
185	0x3d7bbd11	0.061459605
186	0xbe24a271	-0.16077591
187	0xbe06508f	-0.13116668
188	0x3daaa9fc	0.08333203
189	0xbb66d7b3	-0.0035223782
190	0x3d8e7956	0.06956737
191	0xbe004fcb	-0.12530439
192	0x3dafaa08	0.08577353
193	0xbdc43d32	-0.095819846
194	0xbe06c41d	-0.13160749
195	0xbe0efd51	-0.1396382
196	0x3d0e1adf	0.034693595
197	0x3d9ef017	0.07760637
198	0xbd4f096f	-0.050546106
199	0x3e39e700	0.18154526
200	0x3d859397	0.06522291
201	0x3daab74e	0.08335744
202	0x3e1993a6	0.1499773
203	0x3e25d98d	0.1619627
204	0x3d1ab885	0.037773628
205	0xbd7546d6	-0.059882008
206	0xbbc70880	-0.0060740113
207	0x3e501b49	0.20322908
208	0x3e37ccb3	0.1794918
209	0xbd79bec6	-0.06097295
210	0xbe074cad	-0.13212843
211	0x3d93df5f	0.07220339
212	0xbd9095fd	-0.07059858
213	0x3dd0f563	0.10203054
214	0xbe13ae49	-0.14421953
215	0xbdf44b2c	-0.119284004

conv1.bias f4 [8]
0	0x3dc953b5	0.09830419
1	0xbdb643df	-0.08899664
2	0x3de7bbd2	0.11315121
3	0x3c7b2006	0.015327459
4	0x3e301993	0.17197256
5	0xbde3495b	-0.11097976
6	0x3bdf88fb	0.0068217493
7	0xbe11aa10	-0.1422503

conv2.weight f4 [16, 8, 3, 3]
0	0xbcc40518	-0.02392821
1	0x3da72c98	0.081628025
2	0x3da5c08f	0.08093368
3	0xbc804fb5	-0.015663007
4	0x3e1172fb	0.14204018
5	0x3e01ec00	0.12687683
6	0x3d438fa3	0.047744405
7	0xbc393d8e	-0.01130618
8	0x3cd42c94	0.025900163
9	0x3dc2cb53	0.09511437
10	0x3c9dcd43	0.019262915
11	0xbd961523	-0.0732825
12	0xbd9d3c77	-0.076775484
13	0xbe03a5b8	-0.12856185
14	0x3d32b1c0	0.043626547
15	0x3dda14de	0.10648511
16	0xbdececcb	-0.11568602
17	0x3d12de6c	0.03585665
18	0x3c821405	0.015878687
19	0xbdd2296d	-0.102618076
20	0x3d4a01be	0.049318068
21	0xbd955a90	-0.07292664
22	0x3b877513	0.0041338294
23	0x3de833fe	0.11338042
24	0x3bd91aeb	0.0066255233
25	0xbd3497c3	-0.044090044
26	0x3d529b32	0.051417537
27	0xbd5cf92d	-0.05394857
28	0xbd0ebb65	-0.034846682
29	0xbd816aa9	-0.06319172
30	0xbd9ef3b0	-0.077613235
31	0x3d86f73a	0.065901235
32	0x3c9248b9	0.017856942
33	0x3d10800a	0.035278358
34	0xbcd27e7d	-0.02569508
35	0x3d9af4c3	0.07566216
36	0xba9fe042	-0.0012197571
37	0xbd8c10cd	-0.06839142
38	0xbbe97b2a	-0.007125278
39	0xbd823bb9	-0.063590474
40	0xbc077449	-0.008267471
41	0x3d841932	0.06450118
42	0x3d82f28e	0.0639392
43	0x3d3c502a	0.045974888
44	0x3bc57917	0.006026398
45	0x3daf34c0	0.08554983
46	0x3e069384	0.1314221
47	0x3d690ba3	0.056895863
48	0x3d2f1c8b	0.04275183
49	0x3cef2736	0.029193502
50	0xbbd5bbba	-0.006522623
51	0xbc8c9ed6	-0.017165583
52	0x3db048a1	0.08607603
53	0x3c25accd	0.010112
54	0xbd161164	-0.03663768
55	0xbdca620e	-0.09881984
56	0xbdb3023a	-0.08740659
57	0x3dc1f50f	0.09470569
58	0x3dc06c98	0.093957126
59	0xbd509550	-0.050923645
60	0x3bbec6df	0.005822047
61	0x3c8635f3	0.016383147
62	0x3d925095	0.07144276
63	0x3d157cf7	0.03649613
64	0x3c30bad4	0.010786731
65	0xb9587010	-0.00020641112
66	0xbd09ca4d	-0.033640195
67	0x3d9634ee	0.07334314
68	0x3dbd7f41	0.092527874
69	0x3e177410	0.14790368
70	0xbb290d7e	-0.0025795395
71	0x3e124549	0.14284243
72	0xbbfbdd2e	-0.007686279
73	0xbd4031ff	-0.04692268
74	0xbe1f172f	-0.15536188
75	0x3da59cfd	0.08086584
76	0x3dd5160e	0.10404597
77	0x3c985f9a	0.018600274
78	0x3dff8ce7	0.12478047
79	0x3d9b2156	0.07574718
80	0xbbf4f695	-0.007475684
81	0xbdd89bc4	-0.10576585
82	0xbdc38f26	-0.09548788
83	0x3cb77517	0.0223947
84	0x3dc532e1	0.09628845
85	0x3dc3bd3e	0.095575795
86	0x3de3b768	0.11118966
87	0xbcc475cf	-0.023981957
88	0xbd568fda	-0.05238328
89	0x3dcddd63	0.10051992
90	0xbc91843d	-0.017763251
91	0x3d125bd8	0.03573212
92	0x3d9f3091	0.07772935
93	0x3da39b74	0.07988635
94	0x3d4a5a00	0.049402237
95	0xbda4858f	-0.08033287
96	0x3e026ffc	0.12738031
97	0x3cbf34ab	0.023340544
98	0xbda2b2da	-0.079442695
99	0xbdb929ad	-0.09041152
100	0x3b15abab	0.0022837918
101	0xbdb8e54d	-0.09028111
102	0xbc105f53	-0.00881179
103	0x3dbf4d76	0.093409464
104	0xbd580fae	-0.05274933
105	0xbdaffa6f	-0.08592688
106	0xbcad4cfa	-0.02115487
107	0xbd45eb01	-0.04831982
108	0x3d690e01	0.05689812
109	0xbdd837f3	-0.105575465
110	0x3c1c8ec1	0.00955552
111	0x3da67100	0.08127022
112	0xbda38828	-0.07984954
113	0x3da9aeef	0.08285319
114	0x3d088dd3	0.03333838
115	0xbaff6908	-0.0019486258
116	0xbdcecb19	-0.100973316
117	0xbd3bbcb5	-0.045834262
118	0x3c33e535	0.01097994
119	0xbe06bf6a	-0.13158956
120	0x3dc4d75c	0.09611389
121	0x3b25c493	0.002529417
122	0x3e179e2a	0.14806429
123	0x3dd3cf90	0.10342324
124	0x3da6e924	0.08149937
125	0x3d995af8	0.07488054
126	0x3c8ec5f3	0.017428374
127	0xbdaa04c8	-0.08301693
128	0xbde47fa8	-0.11157161
129	0x3d87923d	0.066196896
130	0xbde8aa14	-0.11360565
131	0x3c848648	0.016177312
132	0x3dd9d5c5	0.106364764
133	0x3dd8cd28	0.105860054
134	0x3dfcf302	0.123510376
135	0xbdf43030	-0.119232535
136	0xbcf24842	-0.02957547
137	0x3c1106b4	0.008851696
138	0xbde02104	-0.10943797
139	0xbca52f53	-0.020164168
140	0x3b4e0d72	0.003144112
141	0x3da8344a	0.08213098
142	0x3db74c41	0.08950091
143	0x3da85406	0.08219151
144	0xbd941b6e	-0.07231794
145	0x3c9a7590	0.018854886
146	0x3d9f53af	0.07779633
147	0x3d71b621	0.059011582
148	0x3da9b49c	0.08286402
149	0x3d83e4f9	0.064401574
150	0x3dd3db9d	0.10344622
151	0xbd5b4428	-0.053531796
152	0xbdca0280	-0.09863758
153	0x3d8202f1	0.06348217
154	0xbd485d1a	-0.048916914
155	0xbd2e0940	-0.04248929
156	0xbcdfd67d	-0.027323956
157	0xbded572b	-0.115888916
158	0xbde4c5cf	-0.111705415
159	0xbd948b24	-0.072531015
160	0x3d86b95a	0.06578322
161	0x3c65b414	0.014019985
162	0xbd239fed	-0.03994744
163	0x3d1c8de6	0.038221262
164	0x3dc0e426	0.09418516
165	0xbdcc092c	-0.09962687
166	0xbc5a86e0	-0.013337821
167	0xbdb0c1ef	-0.0863074
168	0x3d8581fc	0.06518933
169	0xbd8229dc	-0.0635564
170	0x3d93f132	0.07223739
171	0xbdb21993	-0.08696284
172	0xbd2367ad	-0.039893795
173	0xbd86add6	-0.06576125
174	0x3d33bba3	0.043880116
175	0x3dda1766	0.10648994
176	0x3c760e68	0.015018083
177	0x3de13a1a	0.1099741
178	0x3dec4a7e	0.11537646
179	0xbd2378b8	-0.03991005
180	0x3dea4295	0.11438481
181	0x3d87e73e	0.06635903
182	0x3c733bb0	0.014845774
183	0xbdd842da	-0.10559626
184	0xbcdeca45	-0.027196059
185	0xbcf5dfdb	-0.03001397
186	0x3d3134b9	0.04326317
187	0xbdbf3672	-0.093365565
188	0xbde6ed73	-0.112757586
189	0xbd8152fe	-0.06314658
190	0x3db8be93	0.09020724
191	0xbd11d40a	-0.035602607
192	0x3df12195	0.117739834
193	0xbdbf0f72	-0.09329118
194	0xbc5e38e0	-0.013563365
195	0x3da44b13	0.08022132
196	0x3dc28f89	0.095000334
197	0x3db22323	0.08698108
198	0x3c830e07	0.0159979
199	0xbdcb847d	-0.099373795
200	0x3cb696e2	0.022288743
201	0xbd6207d5	-0.05518325
202	0xbd27e194	-0.040986612
203	0x3cc125e8	0.023577645
204	0xbd994dd1	-0.074855454
205	0x3d4797d0	0.048728764
206	0xbdd4a943	-0.103838466
207	0xbd7af8b9	-0.061272357
208	0xbd905916	-0.07048242
209	0x3d8cf5a5	0.068827905
210	0xbd10af36	-0.035323344
211	0x3deeb4e5	0.11655597
212	0xbc57bfc0	-0.013168275
213	0xbc95f3f8	-0.01830481
214	0x3d5d96fe	0.054099075
215	0xbcce758c	-0.025202535
216	0x3de37156	0.111056015
217	0x3e1478d0	0.14499211
218	0x3e283115	0.16424973
219	0x3de2c139	0.110720105
220	0xbbc49ba3	-0.0059999987
221	0xbc8b9d58	-0.0170428
222	0x3dc66697	0.09687536
223	0x3ccc1643	0.024912959
224	0xbd7398f6	-0.059472047
225	0xbd2f9a0d	-0.042871524
226	0x3c3d681e	0.011560468
227	0x3d6d068b	0.057867568
228	0xbdb0c1fa	-0.08630748
229	0xbdd2ae89	-0.10287196
230	0xbc746bd0	-0.014918283
231	0x3cfb73f1	0.030694934
232	0xbcd719ff	-0.026257513
233	0x3dc02c70	0.09383476
234	0x3d5beb2c	0.053691074
235	0x3d8493d1	0.06473506
236	0xbdad6b82	-0.08467771
237	0xbdc3e736	-0.09565584
238	0x3dde60af	0.10858285
239	0x3c92c6b6	0.017917018
240	0xbcde73cc	-0.027154826
241	0xbd63f153	-0.055650067
242	0xbcbfe84a	-0.023426194
243	0xbafae568	-0.0019141855
244	0x3c91309a	0.01772337
245	0xbd81e942	-0.063433185
246	0x3dc3913d	0.095491864
247	0xbd8cb620	-0.06870675
248	0xbd816277	-0.06317609
249	0xbafc33ce	-0.0019241513
250	0x3a69134d	0.00088911207
251	0xbcd488f0	-0.025944203
252	0xbd7eb332	-0.062182613
253	0x3dca4e76	0.098782465
254	0xbbbcd01e	-0.005762114
255	0x3dabff92	0.083983555

conv2.bias f4 [16]
0	0x3dc4f5d1	0.09617198
1	0xbdd075c8	-0.10178715
2	0xbdcee374	-0.10101977
3	0xbdb8e239	-0.090275235
4	0x3d4439e8	0.047906786
5	0xbd52eeaa	-0.05149714
6	0x3d6e24e7	0.05814066
7	0xbd2a35f4	-0.04155536
8	0x3ddb30ec	0.107026905
9	0x3dd413a8	0.10355312
10	0xbd096efc	-0.03355311
11	0x3dccd1c4	0.10000947
12	0x3d80e724	0.062940866
13	0xbd1ad108	-0.037797004
14	0x3bc11024	0.0058918167
15	0xbc3f5e20	-0.011680156

conv3.weight f4 [32, 16, 3, 3]
0	0xbd99778b	-0.07493504
1	0xbd558f78	-0.052138776
2	0x3cd91a84	0.026501901
3	0xbc8cfe64	-0.017211147
4	0xbbd6d9f0	-0.006556742
5	0xbd84d7ce	-0.06486474
6	0xbd80d8bb	-0.06291338
7	0xbb529ee0	-0.0032138154
8	0xbc8e8764	-0.017398544
9	0xbab0ab40	-0.0013478771
10	0x3d2f6fca	0.04283122
11	0xbd8193d2	-0.063270226
12	0x3bf8bb80	0.007590711
13	0xbbc379d0	-0.005965449
14	0xbd19801b	-0.037475687
15	0x3d805acb	0.062673174
16	0x3d6ed622	0.05830968
17	0xbd8f07af	-0.069838874
18	0xbd99b327	-0.07504874
19	0xbd2dd9a3	-0.042443883
20	0x3d94f60f	0.072734945
21	0xbd69dfdb	-0.05709825
22	0x3d5f424e	0.054506592
23	0xbb7ddc60	-0.003873609
24	0xbd89df07	-0.06731992
25	0x3d40e2ca	0.047091283
26	0xbceded80	-0.029043913
27	0x3ca6ceec	0.02036234
28	0x3d8c08c5	0.0683761
29	0xbd45984b	-0.04824094
30	0x3c2664a0	0.010155827
31	0xbd2891f6	-0.041154824
32	0xbd67ae08	-0.056562454
33	0xbd6b2110	-0.057404578
34	0xbd4695d0	-0.048482716
35	0x3ca7e610	0.020495445
36	0x3da42d4d	0.08016453
37	0x3a031c00	0.0005001426
38	0xbd0b27e6	-0.033973597
39	0x3da8ea49	0.08247811
40	0xbc3c6e18	-0.011500858
41	0xbd87d35b	-0.0663211
42	0xbd9eb8b4	-0.07750073
43	0xbce86c70	-0.02837202
44	0x3d6d62da	0.0579556
45	0xbd9764fc	-0.07392308
46	0xbceb6c60	-0.0287382
47	0xbd429416	-0.047504507
48	0xbd46b9f0	-0.048517168
49	0x3c905b10	0.017621547
50	0x3d873875	0.06602565
51	0x3d90b4f7	0.07065766
52	0xbd91bdce	-0.071162805
53	0x3d83f569	0.06443293
54	0x3d0f8848	0.035042077
55	0xbc792e88	-0.015208848
56	0xbcdefba6	-0.027219605
57	0xbd94044c	-0.07227382
58	0x3d4d4ff2	0.05012507
59	0xbceb3d6c	-0.028715812
60	0xbd95b61c	-0.07310125
61	0xbb125be0	-0.0022332594
62	0x3d7638da	0.06011281
63	0xbbab6c30	-0.005231403
64	0xbda2734c	-0.079321474
65	0x3cd918dc	0.026501112
66	0xbd83c9c2	-0.064349666
67	0xbd9d66e7	-0.07685643
68	0xbd8a3954	-0.06749216
69	0xbd47e99e	-0.04880678
70	0x3cec13a0	0.028817952
71	0x3d6dde92	0.058073588
72	0xbc36ed40	-0.011164963
73	0x3d3ee42a	0.046604313
74	0x3aefdcc0	0.0018300042
75	0xbbc54fd0	-0.0060214773
76	0xbd5287fb	-0.051399212
77	0xbda629b8	-0.08113426
78	0x3cd61630	0.026133627
79	0xbcfd6d60	-0.030935943
80	0xbcf54f0c	-0.029944919
81	0xbd456c76	-0.04819914
82	0x3c3ba718	0.0114534125
83	0xbc2fcb88	-0.010729678
84	0xbd7fb823	-0.062431466
85	0x3c2804c8	0.010255046
86	0xbd14ef6e	-0.03636115
87	0x3d069430	0.032856166
88	0x3c52eef8	0.012874357
89	0x3d8762ed	0.066106655
90	0x3da8c2c1	0.08240271
91	0x3d2125f6	0.039342843
92	0xbd2be903	-0.041970264
93	0x3c43d118	0.011951707
94	0x3d0b58e8	0.034020334
95	0xbbc25c30	-0.0059313998
96	0xbd5c6730	-0.053809345
97	0xbd8a1323	-0.06741931
98	0x3da684e9	0.08130819
99	0x3cbaae44	0.022788174
100	0xbc50fae8	-0.012755133
101	0x3da817a1	0.08207632
102	0x3d87c451	0.06629241
103	0xbd152846	-0.03641536
104	0xbd9bd1ec	-0.07608399
105	0xbd85a202	-0.06525041
106	0xbb61eda0	-0.003447391
107	0xbd22e433	-0.03976841
108	0x3d886b1b	0.06661054
109	0xbd141118	-0.036149114
110	0x3bd3f080	0.006467879
111	0xbd7bca26	-0.06147208
112	0xbd719ea3	-0.05898918
113	0x3c2f3fd8	0.010696374
114	0xbda51747	-0.080610804
115	0xbd14b273	-0.036302995
116	0x3c854cb4	0.016271926
117	0xbc56d5e8	-0.013112523
118	0x3cacc73c	0.021091096
119	0xbd9e8a82	-0.07741262
120	0xbd5edd40	-0.05441022
121	0x3d154cf8	0.036450356
122	0xbd209e00	-0.03921318
123	0x3bb7e9f0	0.0056126043
124	0x3ca35754	0.019939102
125	0xbda8009b	-0.082032405
126	0x3d2e5da2	0.042569764
127	0xbc65da58	-0.014029108
128	0x3d35c892	0.044380732
129	0x3d01f6e8	0.03172961
130	0x3d99cd35	0.07509843
131	0x3bdc4370	0.0067219064
132	0x3bfe7a50	0.0077660456
133	0xbc1e6e78	-0.0096698925
134	0x3d770c72	0.060314603
135	0xbbe312f0	-0.0069297478
136	0xbd8ea8df	-0.06965803
137	0x3d055322	0.032549985
138	0x3a953800	0.0011384487
139	0x3cae8a20	0.021306098
140	0x3d443c52	0.04790909
141	0x3d88b11b	0.06674405
142	0x3bf84b10	0.0075773075
143	0xbd23cb60	-0.039988875
144	0x3d7c5789	0.061606918
145	0xbb4e3b25	-0.0031468358
146	0x3bcaf21f	0.006193414
147	0x3d86bfce	0.065795526
148	0x3dd6f11a	0.10495205
149	0x3a921045	0.0011143765
150	0xbcd8a7e8	-0.026447251
151	0x3c87a860	0.01655978
152	0xbcb97937	-0.022640808
153	0xbd2bd3cd	-0.041950036
154	0x3dd6c7f1	0.104873545
155	0x3c1dd447	0.00963313
156	0x3dc74707	0.09730344
157	0x3d8ce19f	0.06878971
158	0x3c927cd9	0.017881798
159	0x3db3e764	0.08784369
160	0x3c1584de	0.009125916
161	0x3d28fd61	0.041257266
162	0xbd0f89ee	-0.03504365
163	0x3d58ca40	0.052927256
164	0xbd264527	-0.040593293
165	0x3d4034b2	0.046925254
166	0xbda31b75	-0.079642214
167	0xbd4506ce	-0.048102193
168	0xbc6f3ef8	-0.014602415
169	0x3d939349	0.07205827
170	0x3d84e641	0.0648923
171	0x3c681845	0.014165943
172	0x3d4b54c0	0.04964137
173	0xbd65a12a	-0.0560619
174	0x3db7e87d	0.089798905
175	0x3dee8107	0.11645704
176	0x3d9c77ef	0.07640063
177	0x3da94d5e	0.0826671
178	0x3e058ac8	0.13041222
179	0xbd0cd466	-0.034382246
180	0xbc251448	-0.010075636
181	0xbbc871f3	-0.0061170994
182	0xbd1e2bfc	-0.038616166
183	0x3dd010b8	0.10159439
184	0x3cc79775	0.024364213
185	0xbc43a3ca	-0.011940906
186	0xbb774fc2	-0.0037736748
187	0xbb733ca8	-0.0037115011
188	0x3d94f61e	0.07273506
189	0x3d9efca9	0.07763035
190	0xbd4503ab	-0.0480992
191	0x3d56141d	0.052265275
192	0xbc4fdea3	-0.012687358
193	0xbd9f0f77	-0.077666216
194	0xbd843e54	-0.06457201
195	0xbd22a189	-0.039704833
196	0xbc8ec19c	-0.017426305
197	0x3d9dc098	0.0770275
198	0x3d92bbf3	0.07164755
199	0x3be88171	0.0070955087
200	0x3cb87073	0.022514557
201	0xbd30d8cd	-0.043175507
202	0x3d6c19d5	0.057641823
203	0x3d242ca7	0.040081646
204	0xbd4dc16c	-0.05023329
205	0xbd79cf27	-0.06098857
206	0x3d0784ff	0.03308582
207	0x3c48de07	0.012259967
208	0x3cdcf4cc	0.026972197
209	0xbc1ace78	-0.00944864
210	0xbcb0dc90	-0.021589547
211	0x3c86c7a1	0.016452612
212	0x3ccd2420	0.02504164
213	0x3d603342	0.054736383
214	0x3c824f25	0.01590688
215	0xbd29b105	-0.041428585
216	0x3d7db9aa	0.06194464
217	0x3c7a3c89	0.015273222
218	0x3dbb2f01	0.09139825
219	0x3d3dd28b	0.046343368
220	0x3b89464d	0.0041892887
221	0x3d96b896	0.07359426
222	0xbc8641a0	-0.016388714
223	0xbbdd346a	-0.006750633
224	0x3de7d5e3	0.113200925
225	0x3db5ef86	0.08883576
226	0x3c78d5bd	0.015187678
227	0x3c999edd	0.01875251
228	0x3d0af599	0.033925626
229	0xba285e91	-0.0006422783
230	0xbdb87712	-0.09007086
231	0x3a2aa200	0.0006509125
232	0xbd9f4a64	-0.07777861
233	0xbd367f61	-0.04455507
234	0x3d479972	0.04873032
235	0xbd0badb2	-0.034101196
236	0x3c9d52d9	0.019204544
237	0xbd0c2bb7	-0.034221377
238	0xbbfa5600	-0.0076396465
239	0x3d2f7514	0.042836264
240	0x3dd76d06	0.105188414
241	0xbbd26671	-0.0064209034
242	0xbd43deb8	-0.047819823
243	0xb94f119c	-0.00019747618
244	0xbd075f5f	-0.033049937
245	0x3d80511d	0.06265471
246	0x3d85601b	0.06512471
247	0x3c39f4d0	0.011349872
248	0x3d958690	0.073010564
249	0x3d5c956d	0.05385344
250	0x3ce05ea1	0.027388873
251	0xbd30e45a	-0.043186523
252	0xbd55bc9a	-0.052181818
253	0x3dc944d4	0.09827581
254	0xbbc30cae	-0.0059524393
255	0x3db2b542	0.087259784

conv3.bias f4 [32]
0	0xbccc22e6	-0.024918985
1	0x3d810650	0.06300032
2	0xbd07819a	-0.033082582
3	0xbc817ee4	-0.015807576
4	0xbc39c02d	-0.011337322
5	0xbd87718c	-0.06613454
6	0xbc16e5c1	-0.009210051
7	0xbd7d5a99	-0.06185398
8	0xbd0660ad	-0.03280704
9	0xbcea380c	-0.028591178
10	0x3d919c8c	0.07109937
11	0x3cee2f78	0.02907537
12	0x3d089aa7	0.033350613
13	0x3d33e672	0.04392094
14	0x3d06e49b	0.03293286
15	0xbc365e93	-0.011130947
16	0x3d839ec4	0.064267665
17	0xbce396f4	-0.027781941
18	0x3dbd651c	0.09247801
19	0xbd444218	-0.047914594
20	0x3d0c69f8	0.034280747
21	0x3d0bcf94	0.03413351
22	0xbc8f596a	-0.01749869
23	0x3dafee3b	0.08590361
24	0xbd94ea44	-0.07271245
25	0xbca99711	-0.020701917
26	0x3cc57c11	0.024107011
27	0x3d23cfcd	0.039993096
28	0x3b93e206	0.004513028
29	0xbd59ba48	-0.053156167
30	0xbc78ec68	-0.015193082
31	0xbc758614	-0.01498558

conv4.weight f4 [64, 32, 3, 3]
0	0xbb9ee440	-0.004848987
1	0xbd2047c2	-0.039130934
2	0x3d0d41ff	0.034486767
3	0x3a23a440	0.00062424317
4	0xbd63e8f5	-0.055642087
5	0xbc60f240	-0.013729632
6	0xbb381ed0	-0.0028094538
7	0xbd07d597	-0.03316268
8	0xbb5ee1e0	-0.0034009144
9	0x3d102f18	0.035201162
10	0x3d24744c	0.04014997
11	0xbcee801e	-0.029113825
12	0xbbfe1782	-0.007754267
13	0x3d7fbb78	0.062434644
14	0xbcc89200	-0.02448368
15	0xbd5087dc	-0.050910816
16	0xbd09ed84	-0.03367378
17	0xbd699fd8	-0.057037205
18	0xbd08de72	-0.033415265
19	0xbd22ea9d	-0.039774526
20	0xbd84602a	-0.06463654
21	0xbcc27ae3	-0.023740238
22	0xbdb8b68c	-0.09019193
23	0xbd64893f	-0.05579495
24	0xbd9371b4	-0.071994215
25	0xbd807da0	-0.06273961
26	0xbdcdc090	-0.10046494
27	0xbc549678	-0.012975328
28	0xbcb5c14a	-0.022186894
29	0x3c13c7ec	0.009019833
30	0xbbecff20	-0.0072325617
31	0xbcc50010	-0.024047881
32	0x3d5c90a5	0.05384888
33	0xbcccde94	-0.025008477
34	0x3b0c1ad0	0.0021378286
35	0xbd59505b	-0.05305515
36	0x3b232f4e	0.0024900022
37	0x3cb7041a	0.022340823
38	0x3d82960a	0.06376274
39	0x3ca40073	0.020019745
40	0x3d007fae	0.031371765
41	0x3d705c75	0.058681924
42	0x3d83f8d2	0.06443943
43	0x3d6609f2	0.05616183
44	0xbd1f03e3	-0.038822066
45	0xbd2e83a8	-0.042606026
46	0x3d223763	0.039603602
47	0x3ac20872	0.0014803542
48	0xbca0349e	-0.01955634
49	0xbc38e8d8	-0.011285983
50	0xbbebcfd8	-0.0071964078
51	0xbc172188	-0.009224303
52	0x3d14baf6	0.036311112
53	0xbd536533	-0.051610183
54	0xbc7aefdb	-0.015315975
55	0x3d8cbc22	0.06871821
56	0x3d280f37	0.041030135
57	0x3d0375a5	0.032094616
58	0x3d4123be	0.047153227
59	0x3d019e7e	0.03164529
60	0xbd25dddc	-0.040494785
61	0x38c1cd2e	9.241175e-05
62	0xbaafb414	-0.0013405108
63	0xbd6475a5	-0.055776257
64	0x3cebaade	0.028768
65	0xbc61d451	-0.01378353
66	0x3d3eb6aa	0.04656092
67	0xbc448892	-0.0119954515
68	0xbbda892d	-0.0066691847
69	0xbd3b34b7	-0.04570457
70	0x3c8a1c15	0.016859094
71	0x3d266785	0.040626068
72	0xbd4e102d	-0.050308395
73	0xbc181e62	-0.009284588
74	0x3b237271	0.0024940039
75	0x3d2a5c3b	0.041591864
76	0xbb478d3e	-0.0030449177
77	0xbd3a4ded	-0.045484472
78	0xbcff5652	-0.03116909
79	0xbd6f9dc0	-0.05850005
80	0x3c239ed9	0.009986603
81	0xbd312e4b	-0.04325704
82	0xbd34f0f3	-0.0441751
83	0xbd149ca6	-0.036282204
84	0xbc7a2a25	-0.015268837
85	0xbd5729a4	-0.052529946
86	0xbbfe65f2	-0.0077636177
87	0x3be1499c	0.00687523
88	0xbd8af4eb	-0.06784996
89	0xbc61af3d	-0.01377469
90	0x3cf5d90a	0.030010719
91	0x3d36324f	0.04448157
92	0xbccd9979	-0.025097596
93	0xbb1439a2	-0.002261736
94	0x3b9e0c17	0.0048232186
95	0xbd0fbff4	-0.03509517
96	0xbca229ab	-0.01979526
97	0xbc8d4950	-0.017246872
98	0xbd957067	-0.0729683
99	0x3d62ec0f	0.055400904
100	0xbd066a16	-0.032816015
101	0x3d3a4c3c	0.04548286
102	0x3d23a30f	0.039950427
103	0x3d7f6144	0.06234862
104	0x3cf65081	0.030067684
105	0xbd4c3751	-0.04985744
106	0xbd7c8271	-0.061647836
107	0xbc6e74d0	-0.014554217
108	0xbce80a24	-0.028325148
109	0x3d087e78	0.033323735
110	0x3d0c45e2	0.034246333
111	0x3d54ca4f	0.05195075
112	0x3d536911	0.05161387
113	0x3d94d6e4	0.0726755
114	0x3d8327b5	0.06404058
115	0xbd202503	-0.039097797
116	0xbc2bf33a	-0.010495001
117	0x3ca0e080	0.0196383
118	0x3d74d45a	0.059772827
119	0x3d321603	0.043478023
120	0x3c753586	0.014966374
121	0xbd869f3c	-0.0657334
122	0xbd1f76d4	-0.038931683
123	0xbd6a8990	-0.057260096
124	0xbc131283	-0.0089765815
125	0x3b1c94f7	0.00238925
126	0x3c0bdbac	0.008536261
127	0xbd1b2e70	-0.037886083
128	0xbd29bcbf	-0.041439768
129	0x3d13c846	0.036079668
130	0xbb52a7c7	-0.003214346
131	0xbbbe033a	-0.0057987245
132	0x3d478c7f	0.048717972
133	0x3d765085	0.060135383
134	0x3d5ec637	0.05438825
135	0x3d721e29	0.059110794
136	0x3d3f89d9	0.04676232
137	0x3b60a662	0.003427886
138	0xbd362809	-0.044471774
139	0xbc6c84b0	-0.014435932
140	0xba9e9fbc	-0.0012102048
141	0xbd2c749f	-0.042103406
142	0xbd0a09c5	-0.033700723
143	0xbd2ccfa1	-0.042190198
144	0x3cb7f207	0.022454275
145	0x3d71e91c	0.0590602
146	0x3d94952b	0.07255014
147	0x3d17637b	0.036960106
148	0x3d17b806	0.037040733
149	0x3dc56ac2	0.09639503
150	0xbd523d82	-0.05132819
151	0x3ca8d189	0.020607727
152	0x3d102647	0.035192754
153	0x3c92509e	0.017860707
154	0x3d64ed3f	0.055890318
155	0x3d1e8186	0.038697742
156	0xbcf4208f	-0.029800681
157	0x3ca64190	0.020294935
158	0x3d24be17	0.040220346
159	0xbcb40b64	-0.021978088
160	0xbbdfff1d	-0.006835832
161	0xbc966829	-0.018360214
162	0x3d8a5e03	0.067562126
163	0xbcd74d52	-0.026281986
164	0x3d6fc352	0.05853588
165	0xbc708f01	-0.014682532
166	0x3d8bd67e	0.068280205
167	0xbbccc3d8	-0.0062489323
168	0x3badca9f	0.0053036953
169	0xbc8ba06b	-0.017044267
170	0x3b559c2b	0.0032594304
171	0xbd5c8e14	-0.053846434
172	0xbc2160fc	-0.009849783
173	0x3d3ca4f1	0.046055738
174	0x3cd61e56	0.026137512
175	0xbd6cffe2	-0.057861216
176	0x3d052c9f	0.032513257
177	0xbd06104c	-0.032730386
178	0x3c6b4aac	0.014361065
179	0xbc671ae4	-0.014105532
180	0x3d9a2cae	0.07528053
181	0xbc7a3b10	-0.015272871
182	0xbcf188a5	-0.029484103
183	0x3d01d44a	0.031696595
184	0x3c01bf10	0.007919088
185	0x3cae707d	0.021293873
186	0x3c970915	0.018436948
187	0x3d92fd4b	0.07177218
188	0x3c88d80c	0.016704582
189	0xbc2740c1	-0.01020831
190	0x3cda0354	0.026612915
191	0x3ca2087f	0.019779442
192	0x3cb21cdd	0.021742279
193	0x3bb92057	0.005649607
194	0xbc40a99e	-0.01175919
195	0x3cb1a4be	0.021685
196	0x3d4d56c2	0.050131567
197	0x3be93c0e	0.007117755
198	0xbc8c0f7a	-0.017097224
199	0xbd9c0d03	-0.07619669
200	0xbc99b677	-0.018763764
201	0x3d881799	0.06645126
202	0x3d4801f9	0.048830006
203	0x3d1baa19	0.038004015
204	0x3ba718f5	0.0050994107
205	0xbd2ec7c0	-0.042670965
206	0xbd9619e4	-0.07329157
207	0x3d8a1bb6	0.06743567
208	0x3c28fc8e	0.01031412
209	0xbbcc0ff1	-0.0062274863
210	0xbc519ebd	-0.012794194
211	0x3c99b81c	0.018764548
212	0x3aa2c8e7	0.0012419493
213	0x3c961263	0.018319314
214	0x3d30d81d	0.04317485
215	0x3c89f628	0.01684101
216	0xbd5586d1	-0.052130524
217	0xbc645472	-0.013936149
218	0x3cf70b73	0.030156827
219	0xbd54d300	-0.051959038
220	0xbd816ae2	-0.063192144
221	0xbd0810e2	-0.033219226
222	0x3d141148	0.036149293
223	0xbd1d3fcc	-0.03839092
224	0xbd7561ad	-0.059907604
225	0x3bf95325	0.0076087886
226	0x3d873f13	0.06603827
227	0xbd19c3c2	-0.037540205
228	0xbb735ed5	-0.0037135382
229	0x3bfead23	0.0077721043
230	0xbc7d1994	-0.015447993
231	0xbc8f522e	-0.017495241
232	0xbcf006df	-0.029300151
233	0xbdba1326	-0.090856835
234	0x3d1a274d	0.037635136
235	0x3d12a309	0.035800014
236	0x3d5ac1aa	0.05340735
237	0xbc8ac906	-0.016941559
238	0x3d88dd7f	0.06682872
239	0xbcef2dea	-0.029196698
240	0xbd2431f4	-0.0400867
241	0x3cf01fc0	0.029312015
242	0xbd053cb2	-0.032528587
243	0xbcf26911	-0.029591115
244	0x3d259a55	0.040430386
245	0x3cbffded	0.023436511
246	0x3d093820	0.03350079
247	0x3d48016d	0.048829485
248	0x3d59ec0d	0.05320363
249	0x3cc2c364	0.02377481
250	0x3d7537fd	0.059867848
251	0x39fb634f	0.0004794844
252	0xbc64777a	-0.013944501
253	0x3b82bc81	0.0039897566
254	0xbd1327b9	-0.035926554
255	0x3d2dfa3a	0.042474963

conv4.bias f4 [64]
0	0x3c0d333c	0.008618172
1	0xbc452de4	-0.012034867
2	0x3d35219e	0.044221513
3	0xbd77fb1c	-0.06054221
4	0xbd615c62	-0.055019744
5	0x3c13e72e	0.0090272855
6	0xbbc36d92	-0.0059639895
7	0xbd04f1a9	-0.032457028
8	0xbd75b401	-0.05998612
9	0xbd6a8b61	-0.05726183
10	0xbd492dc3	-0.049115907
11	0xbbf28b13	-0.007401833
12	0x3d8b7c0f	0.06810772
13	0x3d08840e	0.033329062
14	0xbcb6c1d3	-0.02230922
15	0xbd0846b2	-0.033270545
16	0x3d3d8199	0.046266172
17	0xbd4bd298	-0.049761385
18	0xbcb82460	-0.022478282
19	0xbd83541a	-0.064125255
20	0x3d7aa017	0.06118783
21	0xbd1fb1ba	-0.038987853
22	0xbd6ce93c	-0.057839617
23	0x3c539221	0.012913258
24	0xbd7134f2	-0.058888383
25	0xbd1adc7b	-0.037807923
26	0xbd2743ea	-0.040836252
27	0x3d7c50f0	0.061600626
28	0xbd4d8791	-0.050178114
29	0xbd27b354	-0.040942505
30	0xbd4ae4b3	-0.04953451
31	0xbd6a7ba5	-0.057246823
32	0xbd238cde	-0.039929263
33	0xbc0c0d2e	-0.008548064
34	0x3d982ea5	0.07430772
35	0xbd82698a	-0.06367786
36	0xbc46a39f	-0.012123971
37	0x3d13a89e	0.036049478
38	0x3d6f3675	0.058401544
39	0x3d1b570c	0.03792481
40	0x3d94f562	0.072733656
41	0xbcd02a9e	-0.025410946
42	0xbd1e9572	-0.03871674
43	0xbbeb1cc7	-0.0071750614
44	0x3d60fa1d	0.054926027
45	0x3d5118a5	0.051048893
46	0xbd08c04c	-0.033386514
47	0xbd2f39e9	-0.042779837
48	0x3c9b4559	0.018953966
49	0xbcc62426	-0.024187159
50	0xbcb40c99	-0.021978663
51	0x3d1d9d86	0.038480304
52	0x3d9995b8	0.0749926
53	0x3c9a80ba	0.01886021
54	0x3d3d5aab	0.046229046
55	0xbd722b99	-0.05912361
56	0x3d05cb47	0.032664564
57	0x3bdc732b	0.0067275963
58	0xbbb5d088	-0.0055485405
59	0xbd76c18e	-0.060243182
60	0xbc232d92	-0.009959595
61	0x3d0979a9	0.03356329
62	0xbce78bc5	-0.02826489
63	0xbcc73a8e	-0.024319913

fc1.weight f4 [100, 256]
0	0xbd520e1c	-0.051282987
1	0x3d24e752	0.040259667
2	0x3ce6e718	0.028186366
3	0x3c7e8b86	0.015536195
4	0xbcf8142e	-0.03028306
5	0x3cbd8132	0.023132894
6	0xbb355dda	-0.0027674348
7	0x3d30b34f	0.043139752
8	0xbc2afbb3	-0.010435986
9	0xbd757d7f	-0.059934136
10	0x3cea36a9	0.028590517
11	0x3d49e6a1	0.04929221
12	0x3b324bd3	0.002720584
13	0x3d9b0eab	0.07571157
14	0xbd0ba14c	-0.03408937
15	0xbc00ff6f	-0.0078734
16	0xbd3d8475	-0.0462689
17	0xbcf3d208	-0.029763237
18	0xbcbcd5b8	-0.023051128
19	0x3c89a924	0.016804285
20	0x3d01f2ee	0.031725816
21	0x3d11508d	0.03547721
22	0x3c9c59a5	0.019085715
23	0xbc4f4dec	-0.012652855
24	0xbd59897f	-0.053109642
25	0xbcd58706	-0.02606536
26	0x3d91bb16	0.07115762
27	0x3db85164	0.08999899
28	0x3cf87c0d	0.03033259
29	0x3db4777a	0.08811851
30	0x3d850902	0.06495859
31	0xbcc3382b	-0.023830494
32	0x3c9a7243	0.018853312
33	0x3da937c9	0.08262593
34	0xbd0c67c5	-0.03427865
35	0x3da93288	0.08261591
36	0x3c75722c	0.014980834
37	0x3daacb6b	0.0833958
38	0x3d729e5f	0.059233066
39	0xba345185	-0.00068786024
40	0xbd095c48	-0.033535272
41	0x3b1d4160	0.0023995265
42	0xbd61a188	-0.05508569
43	0x3cf2eedd	0.029654915
44	0x3c1f4493	0.009720939
45	0x3dd0d2af	0.10196435
46	0xbc9f567a	-0.019450415
47	0xbd7bd675	-0.06148382
48	0xbd8bae50	-0.06820357
49	0x3c9acbf9	0.01889609
50	0x38d602fb	0.0001020487
51	0x3d7cabea	0.061687388
52	0xbd0831b3	-0.033250522
53	0x3dda3cf2	0.10656156
54	0x3ca38ada	0.01996367
55	0x3c8bcac8	0.017064467
56	0x3c4b2c78	0.012400739
57	0x3d5a1d55	0.05325063
58	0x3d29a8ad	0.041420627
59	0xbd3df905	-0.04638006
60	0x3d555af3	0.05208869
61	0x3d2fc136	0.04290887
62	0x3cb01bea	0.021497685
63	0xbcc8e0f9	-0.024521338
64	0xbaaf04a1	-0.001335282
65	0xbd56e05e	-0.052460067
66	0xbc3356fc	-0.010946032
67	0xbc9f37fb	-0.019435873
68	0xbd24c432	-0.04022617
69	0xbd7dc95c	-0.06195961
70	0xbc8854d0	-0.016642004
71	0xbc47b568	-0.012189247
72	0xbac5d9c0	-0.0015094802
73	0x3cc5df84	0.024154432
74	0xbc596db0	-0.01327078
75	0xbd2fed50	-0.04295093
76	0x3c319801	0.010839463
77	0x3ce2608a	0.027633924
78	0x3d34288d	0.043983985
79	0x3d5156f4	0.051108316
80	0x3d76277a	0.06009624
81	0x3c16d888	0.0092068985
82	0x3d5c0c3e	0.053722613
83	0x3cb28aa2	0.02179462
84	0x3c84f1df	0.016228614
85	0xbd1811ba	-0.03712628
86	0x3d5dc8da	0.054146625
87	0xbc4089a2	-0.011751564
88	0xbcaf6543	-0.02141059
89	0xbbb3bf15	-0.0054854252
90	0x3d56e0a0	0.052460313
91	0xbcdad678	-0.026713595
92	0x3c108009	0.008819588
93	0x3b6395ca	0.0034726732
94	0x3d2f5c20	0.042812467
95	0x3cce2312	0.025163207
96	0xbd6f9fa6	-0.058501862
97	0x3d1803bc	0.037112936
98	0x3c990f84	0.018684156
99	0x3ce5c02c	0.028045736
100	0x3da2596e	0.079272136
101	0x3da4aeba	0.08041139
102	0xbc4a2fe4	-0.01234052
103	0x3dada957	0.08479565
104	0xbc1d3d7c	-0.009597179
105	0x3dd85918	0.10563868
106	0x3d97253a	0.07380147
107	0x3dc1b45e	0.094582304
108	0x3cb2bf61	0.021819772
109	0x3ba63cd4	0.0050731692
110	0xbd23e531	-0.040013496
111	0x3cdcd168	0.026955321
112	0x3c660535	0.014039327
113	0xbc63c6af	-0.01390235
114	0xbcde4d7e	-0.02713656
115	0x3d574626	0.052557133
116	0x3d01c030	0.031677425
117	0xbb4a87c6	-0.0030903681
118	0xbc1fd38c	-0.009755027
119	0xbd324bd5	-0.04352935
120	0x3d242231	0.04007167
121	0x3d3b6d0b	0.04575829
122	0xbc01b188	-0.007915862
123	0x3ca98288	0.020692125
124	0x3d615fc2	0.055022962
125	0x3d68d14d	0.05684023
126	0x3c7a0c83	0.015261772
127	0x3c4e2bc6	0.012583679
128	0x3c9f5cc6	0.019453418
129	0x3d9a4e26	0.07534437
130	0x3c8395cb	0.016062638
131	0x3d3c70f3	0.046006154
132	0x3d7a2bd4	0.061076954
133	0x3d3f4b27	0.04670253
134	0xbc54a25f	-0.012978165
135	0x3d4e6357	0.050387707
136	0x3c9332a2	0.01796848
137	0xbd82ec97	-0.06392782
138	0x3d0e5baf	0.034755405
139	0x3cc1ac02	0.02364159
140	0xbc996c93	-0.01872853
141	0x3ca1fc46	0.019773614
142	0x3d6a8947	0.057259824
143	0x3bcb12ed	0.0061973245
144	0x3d44c422	0.04803861
145	0xbd900e99	-0.07034034
146	0xbc50369a	-0.0127083305
147	0x3d4b28ac	0.049599335
148	0xbd8d12ac	-0.06888327
149	0xbd0e93d3	-0.034808945
150	0x3d45f549	0.048329625
151	0x3c8f5b80	0.017499685
152	0xbd545f28	-0.05184856
153	0xbd91d10e	-0.07119952
154	0x3d083bbf	0.033260103
155	0x3c80327e	0.015649077
156	0xbd241fbb	-0.040069323
157	0xbd19b1d3	-0.037523102
158	0xbc2faa83	-0.0107218055
159	0x3d055919	0.032555673
160	0xbd9725c2	-0.073802486
161	0xbd6b7f01	-0.057494167
162	0x3bf8cde8	0.0075929053
163	0x3c3e510f	0.011616006
164	0xbc3a526a	-0.011372188
165	0x3bff43b2	0.0077900523
166	0xbd0e8002	-0.034790047
167	0xbc6ee230	-0.0145802945
168	0xbcdd539c	-0.027017407
169	0x3bb79dc9	0.0056035263
170	0xbd4fa48b	-0.05069403
171	0xbdb24ab1	-0.087056525
172	0x3d9e6fc4	0.07736161
173	0x3d102650	0.035192788
174	0x3cd2ca17	0.02573113
175	0x3d6568a2	0.05600799
176	0x3d8b6c19	0.06807727
177	0x3dc109f2	0.09425725
178	0xb9492a2d	-0.00019184565
179	0x3cac61ac	0.021042667
180	0xbb70d93e	-0.003675058
181	0x3d52def4	0.051482156
182	0xbcf65646	-0.030070435
183	0x3d53e389	0.051730666
184	0xbc1a9350	-0.009434536
185	0xbd4c6dd6	-0.049909435
186	0xbd23b8d2	-0.03997118
187	0x3bc53c90	0.0060191825
188	0xbcf25c20	-0.029584944
189	0xbd5f4c2e	-0.05451601
190	0x3c999fea	0.01875301
191	0x3d914208	0.070926726
192	0x3d7523a5	0.059848446
193	0x3dbd9633	0.09257164
194	0xbb90f41b	-0.004423631
195	0x3db00bca	0.085959986
196	0x3c60b964	0.013716076
197	0x3cb8422d	0.022492493
198	0x3bc06fc3	0.005872698
199	0xbb873cc2	-0.004127116
200	0xbd09b7ae	-0.033622436
201	0x3daceb7e	0.08443354
202	0x3dacbf3b	0.08434912
203	0x3cc5bfe5	0.024139354
204	0xbd50eafb	-0.051005345
205	0xbc9abf18	-0.018889949
206	0xbd222367	-0.039584544
207	0x3d221e69	0.039579783
208	0xbd8c890e	-0.068620786
209	0xbbce752d	-0.0063005895
210	0xbd820c40	-0.06349993
211	0x3d045d54	0.032315567
212	0x3d3af016	0.04563912
213	0x3dbdf41a	0.09275074
214	0xbd0199df	-0.031640884
215	0x3dcf386e	0.10118185
216	0xbc1b0a79	-0.009462946
217	0x3d1a2285	0.037630577
218	0xbca2107d	-0.019783253
219	0xbc82a575	-0.015948037
220	0x3d482482	0.04886294
221	0xbd458769	-0.04822484
222	0x3d19df8a	0.0375667
223	0xb9fab99b	-0.00047822003
224	0x3cb86b3f	0.022512076
225	0x3d0064ef	0.031346258
226	0xbd8cf92c	-0.06883463
227	0x3c57435e	0.01313862
228	0x3d6ac8bf	0.057320353
229	0x3d0131b5	0.031541545
230	0x3c9f2cf0	0.019430608
231	0xbc914a03	-0.017735487
232	0x3cbe43e4	0.023225732
233	0xbd73c3d6	-0.059512936
234	0xbd503964	-0.050835982
235	0xbd5c7812	-0.053825445
236	0x3c54e628	0.012994327
237	0x3cce3930	0.025173753
238	0x3d0b4284	0.03399898
239	0xbd4e0d6d	-0.050305773
240	0x3daf96a1	0.08573652
241	0x3d8ff378	0.0702886
242	0x3d8c19c2	0.068408504
243	0x3d8e95f2	0.069621935
244	0x3d831969	0.06401331
245	0x3db2ef1f	0.08737015
246	0xbd347d4b	-0.0440648
247	0xbd4b86e8	-0.049689204
248	0xbce00397	-0.027345462
249	0x3dba1539	0.09086079
250	0xbcc5f838	-0.024166211
251	0x3d16b725	0.036795754
252	0xbd6e02ea	-0.058108248
253	0xbd1cedfe	-0.038312905
254	0x3c85944c	0.016306065
255	0x3d0c7250	0.034288704

fc1.bias f4 [100]
0	0x3c9a2fbe	0.018821593
1	0xbd5ccb13	-0.053904604
2	0x3d2c6c51	0.042095486
3	0x3d08f375	0.033435304
4	0xbc0d25a0	-0.0086149275
5	0xbc439056	-0.011936268
6	0xbd0fe140	-0.035126925
7	0x3d04ddc8	0.03243807
8	0x3da7d89b	0.08195611
9	0x3ccaaf16	0.02474169
10	0x3d44d558	0.048055023
11	0xbc5ac9a9	-0.013353744
12	0xbd24577e	-0.0401225
13	0x3c029ba6	0.00797168
14	0x3c788182	0.015167596
15	0xbc02e993	-0.007990259
16	0x3d1f50c3	0.03889538
17	0xbc5407a2	-0.012941273
18	0xbd5e41ff	-0.054262158
19	0x3da1e973	0.07905855
20	0x3cc220d5	0.023697296
21	0xbd357016	-0.044296347
22	0x3b30f4cc	0.002700138
23	0xbbe6b901	-0.007041097
24	0x3cdeec64	0.02721233
25	0xbc906f94	-0.01763133
26	0x3cf5d4d7	0.030008717
27	0x3d66489c	0.05622159
28	0x3d54db93	0.051967215
29	0x3ca45f83	0.020065075
30	0xbd00826a	-0.031374373
31	0xbd84970d	-0.06474123
32	0x3bff2dd0	0.0077874437
33	0x3ce238b1	0.027614923
34	0xbca324a8	-0.01991494
35	0xbc3b40b1	-0.011428998
36	0xbcf5160a	-0.029917736
37	0x3d62b54f	0.05534869
38	0x3d49813e	0.04919552
39	0x3da20869	0.0791176
40	0x3d293645	0.04131152
41	0xbd42c590	-0.04755169
42	0x3c1b8855	0.009492953
43	0xbcefe2fa	-0.029283036
44	0xbd3c6d6b	-0.046002787
45	0xbba3b2c0	-0.004995674
46	0x37d36d48	2.5204048e-05
47	0x3c72673b	0.01479512
48	0x3d61e9ec	0.055154726
49	0xbc0583f0	-0.008149132
50	0x3d815865	0.06315688
51	0x3c170dd3	0.009219605
52	0xbd809d86	-0.06280045
53	0xbb513a25	-0.0031925526
54	0x3d358993	0.044320654
55	0x3c5d6789	0.013513454
56	0x3c6db531	0.014508531
57	0xbae7f17e	-0.0017695872
58	0x3da65436	0.08121531
59	0x3af53e64	0.001871061
60	0x3d7d817a	0.061891057
61	0xbcba2762	-0.022723857
62	0x3d3c342d	0.045948196
63	0x3d602cce	0.05473023
64	0xbc46c134	-0.012131024
65	0xbd1f92ed	-0.03895848
66	0x3d3cc6dd	0.04608809
67	0x3da15867	0.078781895
68	0x3c2611b9	0.010136061
69	0x3cd1915d	0.02558201
70	0xbd30ea88	-0.043192416
71	0x3d531f31	0.05154342
72	0xbd1424f4	-0.036168054
73	0xba85b700	-0.0010201633
74	0x3d720df1	0.059095327
75	0x3ce8bf77	0.02841161
76	0xbd55a1bd	-0.0521562
77	0x3d6a9c8b	0.057278197
78	0x3d6173d8	0.055042118
79	0xbc91cba5	-0.0177973
80	0x3d942cf3	0.07235136
81	0xbcc7ac6a	-0.024374206
82	0xbd29e531	-0.04147834
83	0x3cd28c8b	0.025701782
84	0x3d72d18f	0.059281882
85	0xbc549104	-0.012974028
86	0xbd0bac8a	-0.034100093
87	0x3d0070ec	0.03135769
88	0x3cd7be2b	0.026335796
89	0x3d1f026a	0.03882066
90	0x3db9b25e	0.09067224
91	0xbc1bec20	-0.009516746
92	0x3d3ecfbf	0.04658484
93	0xbc3bba18	-0.011457942
94	0xbc8cc473	-0.017183518
95	0xbcb5efe4	-0.022209115
96	0x3d3a3493	0.045460295
97	0x3c2f9fc5	0.010719244
98	0xbd2a594c	-0.041589066
99	0xbd6915b2	-0.056905456

fc2.weight f4 [1, 100]
0	0x3de91d42	0.113825336
1	0x3c8a4bd3	0.016881859
2	0x3d7985b4	0.060918525
3	0xbdaed829	-0.08537323
4	0xbdfb3d9c	-0.122676104
5	0x3d9e8fb4	0.07742253
6	0x3d8539cf	0.06505167
7	0x3d729fb6	0.059234343
8	0xbdb5157d	-0.08841989
9	0x3d75a578	0.059972256
10	0x3d971e58	0.073788345
11	0x3dd82753	0.105543755
12	0xbdbc1217	-0.09183138
13	0xbdf617fb	-0.12016293
14	0x3d865ee8	0.06561071
15	0xbd6117ae	-0.054954223
16	0x3d9da45c	0.07697365
17	0x3cffa37c	0.031205885
18	0x3dbd4110	0.09240925
19	0xbd940b92	-0.07228769
20	0x3bea9da0	0.0071599036
21	0x3dd94e53	0.10610642
22	0x3da700b3	0.0815443
23	0x3e1537bc	0.14572042
24	0x3e15b079	0.146181
25	0xbd420ae3	-0.047373664
26	0xbdfd6fb2	-0.1237482
27	0xbd89b470	-0.06723869
28	0x3d95c36b	0.07312664
29	0xbdb43abb	-0.088002644
30	0xbdcbb617	-0.0994684
31	0x3daa741d	0.08322928
32	0xbcf99fac	-0.030471645
33	0xbe140bd4	-0.14457637
34	0x3defe4a5	0.11713532
35	0xbd969bd7	-0.07353943
36	0xbd8716ae	-0.06596123
37	0xbe0a14b6	-0.13484463
38	0xbdbf23fc	-0.09333035
39	0xbe06532b	-0.13117664
40	0xbddb1029	-0.10696442
41	0x3da63921	0.08116365
42	0x3dd9d6da	0.10636683
43	0xbda78fd8	-0.08181733
44	0x3d6b2bcb	0.05741481
45	0x3d36bad6	0.044611774
46	0x3dc0ab0e	0.09407626
47	0x3df3c1c1	0.1190219
48	0xbdc87444	-0.09787801
49	0xbbe307d0	-0.0069284216
50	0xbdb9974f	-0.09062063
51	0x3dd3941e	0.103309855
52	0x3e0ea1c8	0.13928902
53	0x3daf5450	0.08561003
54	0xbdf7f201	-0.121067055
55	0x3d97cddc	0.074123114
56	0xbdc957f6	-0.0983123
57	0x3e150a86	0.14554796
58	0xbd850327	-0.06494742
59	0x3e0af52c	0.13570088
60	0xbd989fd6	-0.07452361
61	0xbd96b2be	-0.07358311
62	0x3dabc92f	0.08387982
63	0x3de0a032	0.10968055
64	0x3ccb756a	0.02483626
65	0x3e0cd252	0.13752106
66	0xbdb5059f	-0.08838963
67	0xbda4a8a9	-0.08039982
68	0x3e1825f4	0.14858228
69	0x3e15510b	0.14581697
70	0xbd6426a0	-0.0557009
71	0x3df69202	0.120395675
72	0x3d84399e	0.06456302
73	0xbd62ee83	-0.055403244
74	0xbdf930ee	-0.12167536
75	0xbdaed0cc	-0.085359186
76	0xbc3a79d5	-0.011381586
77	0xbdb7cf3e	-0.08975075
78	0x3e1a9849	0.15097155
79	0x3e19cc33	0.15019302
80	0xbd9d0926	-0.076677606
81	0x3e161404	0.14656073
82	0x3dee4c4c	0.11635646
83	0x3e089232	0.13337019
84	0xbde4f501	-0.11179543
85	0xbd272774	-0.04080911
86	0xbcc0b966	-0.023525905
87	0xbdaab4ec	-0.08335289
88	0xbe07e09b	-0.13269274
89	0xbd75311f	-0.0598613
90	0xbd6324c3	-0.05545498
91	0xbcefc789	-0.02926995
92	0xbe00a101	-0.12561418
93	0x3d099b52	0.03359539
94	0xbca70612	-0.020388637
95	0xbc69b035	-0.014263202
96	0x3dd6d9b0	0.10490739
97	0x3da71d5f	0.08159899
98	0x3d8e99a0	0.069628954
99	0x3d8dd7fe	0.06925963
