model_weights/weights_eye.pt (torch, 205391 bytes, 11 tensors)

conv1.weight f4 [8, 3, 3, 3]
0.06282781 -0.05705657 0.18308221 0.00406777 0.07700685 0.13803059 -0.12179077 -0.107976235
-0.07733174 -0.04552898 -0.02646166 0.112372704 -0.1471817 -0.10001367 -0.09820101 0.0028638113
-0.06823116 -0.099435225 -0.06593372 0.03116993 -0.04467716 -0.19940005 -0.03609236 0.088038266
0.13126619 -0.08576622 -0.059186563 0.05201475 0.14640377 -0.0392633 0.21717986 -0.05308547
-0.044819415 0.027417079 0.026537735 0.14723682 0.060242053 0.27693018 0.21961413 0.104828626
0.15320507 0.18058382 0.078190066 0.2526679 0.07819484 0.08360701 -0.04388541 0.26880872
-0.014493015 0.25094134 0.07830942 0.19114804 0.07327526 -0.009127341 -0.051407725 0.18833415
-0.18387152 -0.08339442 -0.041221596 0.07500431 -0.028724179 -0.115050815 0.02444764 0.090408884
0.0846711 -0.04172146 0.17113316 -0.04918909 -0.1684083 -0.13719288 -0.10388055 -0.15611617
0.17876118 0.10874725 -0.011601907 0.043534264 0.087673806 -0.11221737 -0.09997531 -0.16212846
-0.06852996 -0.056890987 -0.12415206 -0.19173096 0.07714849 0.09059369 -0.21425745 0.15009734
0.20185187 0.019424537 0.19007847 0.0011288768 -0.047925107 0.012573906 -0.09015723 -0.13380069
-0.12750083 0.022487734 0.02451454 0.12910286 -0.010085351 -0.20086308 -0.14547065 -0.15920997
-0.07012682 -0.15850767 0.16124776 -0.045313057 0.07035425 -0.1073102 0.2587009 0.13246135
-0.05564191 0.2657123 0.040923372 0.17946547 -0.09801643 0.25906187 0.019603826 0.031443585
0.10850334 -0.0633028 0.15920691 0.19125807 0.19616395 -0.02949649 0.26785117 -0.087218724
0.15775871 0.14225934 -0.059356216 -0.029411776 0.049025677 0.09406108 0.25777245 0.2395551
0.045030225 0.20292883 -0.01705058 0.12308946 0.20806418 0.19927397 0.071568854 0.24882282
0.21962233 0.066531 -0.10705569 0.08896472 0.110411316 0.14987849 -0.010726946 0.15035905
0.23882498 -0.08601761 -0.06146725 0.12655565 0.27338678 0.29551807 -0.015079954 0.07985961
-0.047923498 0.25920314 0.18064693 -0.18730946 -0.19139986 -0.13400874 -0.096707076 0.056016915
-0.059496738 -0.025402267 -0.03786515 0.066922516 -0.21043833 -0.06236634 0.16935134 -0.011754686
0.01900063 -0.12992422 0.036221266 0.23642774 -0.05679007 0.013114881 -0.14922361 0.09051779
-0.09949747 0.07813565 0.056200422 0.16371867 0.12518106 0.025285237 0.09365895 0.13271551
-0.017085113 0.09794923 0.21144193 0.119786076 0.1410912 0.006503624 0.14350928 -0.07380273
0.2063915 -0.046939787 0.16351993 0.09512474 -0.11568505 0.21836752 0.25591198 -0.11969612
0.04211949 -0.111168794 0.21274546 0.21316034 0.22012159 0.21564862 -0.008818405 0.20446017
00000000: deab 803d 26b4 69bd e779 3b3e ee4a 853b
00000010: c4b5 9d3d e457 0d3e 706d f9bd a522 ddbd
00000020: 1a60 9ebd 997c 3abd 20c6 d8bc a923 e63d
00000030: cdb6 16be f8d3 ccbd 9c1d c9bd c8ae 3b3b
00000040: c7bc 8bbd b2a4 cbbd 4208 87bd 1558 ff3c
00000050: 66ff 36bd 872f 4cbe 95d5 13bd 684d b43d
00000060: a56a 063e 33a6 afbd 9c6d 72bd 6b0d 553d
00000070: dfea 153e 8ed2 20bd 6664 5e3e 2670 59bd
00000080: 9094 37bd c899 e03c aa65 d93c 40c5 163e
00000090: 5fc0 763d cbc9 8d3e 87e2 603e 64b0 d63d
000000a0: cae1 1c3e f7ea 383e 1d22 a03d b05d 813e
000000b0: 9e24 a03d 273a ab3d 30c1 33bd 4ca1 893e
000000c0: 1c74 6dbc 627b 803e b060 a03d 50bc 433e
000000d0: 5711 963d d88a 15bc e890 52bd abda 403e
000000e0: d148 3cbe b2ca aabd fad7 28bd dc9b 993d
000000f0: f84e ebbc c39f ebbd 6b46 c83c 4b28 b93d
00000100: 0b68 ad3d 1fe4 2abd 883d 2f3e 807a 49bd
00000110: 3a73 2cbe 4a7c 0cbe 53bf d4bd ebdc 1fbe
00000120: 2c0d 373e e1b6 de3d ed15 3ebc fc50 323d
00000130: 538e b33d 38d2 e5bd dbbf ccbd 0105 26be
00000140: 7059 8cbd 8606 69bd 6f43 febd 1f55 44be
00000150: 0700 9e3d 2f89 b93d 4e66 5bbe 1eb3 193e
00000160: 42b2 4e3e 3520 9f3c eea3 423e d2f6 933a
00000170: 1e4d 44bd c902 4e3c 5ba4 b8bd 0c03 09be
00000180: 948f 02be 3238 b83c b7d2 c83c 8a33 043e
00000190: 073d 25bc 0daf 4dbe 42f6 14be f007 23be
000001a0: a69e 8fbd d64f 22be 221e 253e 2f9a 39bd
000001b0: e415 903d 73c5 dbbd 7274 843e f3a3 073e
000001c0: c5e8 63bd 710b 883e 449f 273d ccc5 373e
000001d0: d7bc c8bd c2a3 843e 3498 a03c fdca 003d
000001e0: 0037 de3d e6a4 81bd 2307 233e 28d9 433e
000001f0: 34df 483e 9fa2 f1bc ca23 893e bb9f b2bd
00000200: 808b 213e 6fac 113e 811f 73bd f7f0 f0bc
00000210: 26cf 483d 18a3 c03d c0fa 833e ef4d 753e
00000220: 9d71 383d 93cc 4f3e a8ad 8bbc 5416 fc3d
00000230: c70e 553e 7a0e 4c3e b192 923d 69cb 7e3e
00000240: ade4 603e 6841 883d 0340 dbbd 2333 b63d
00000250: 541f e23d bf79 193e 13c0 2fbc b9f7 193e
00000260: 898e 743e 002a b0bd 15c5 7bbd ce97 013e
00000270: 5af9 8b3e 254e 973e e911 77bc 6f8d a33d
00000280: 6e4b 44bd 46b6 843e 82fb 383e 0dce 3fbe
00000290: 53fe 43be 9639 09be 5c0e c6bd fe71 653d
000002a0: dab2 73bd 6a18 d0bc 7d18 1bbd ac0e 893d
000002b0: 257d 57be d973 7fbd 706a 2d3e ba96 40bc
000002c0: 36a7 9b3c db0a 05be c05c 143d 1d1a 723e
000002d0: b49c 68bd ccdf 563c 13ce 18be 6461 b93d
000002e0: 54c5 cbbd 9505 a03d 6a32 663d dea5 273e
000002f0: 772f 003e fc22 cf3c 43d0 bf3d 93e6 073e
00000300: 14f6 8bbc 9b99 c83d 3c84 583e 6752 f53d
00000310: 367a 103e 5a1c d53b 19f4 123e e325 97bd
00000320: 4b58 533e ef43 40bd c571 273e c2d0 c23d
00000330: 49ec ecbd bc9b 5f3e e506 833e 3d23 f5bd
00000340: 7d85 2c3d 77ac e3bd f2d9 593e b446 5a3e
00000350: 8e67 613e fed2 5c3e 127b 10bc 025e 513e

conv1.bias f4 [8]
0.27030978 0.07082491 0.24767753 0.28313893 -0.07718272 0.19344307 0.078244105 -0.19965853
00000000: 0b66 8a3e a70c 913d 2e9f 7d3e 96f7 903e
00000010: f911 9ebd f115 463e 723e a03d 4973 4cbe

conv2.weight f4 [16, 8, 3, 3]
0.12910895 0.21329625 0.21173695 0.13893872 0.2078632 0.18730342 0.06226027 0.06614387
-0.013333227 0.067562275 -0.08583749 0.102862835 0.0020798694 -0.06809651 0.06936852 -0.019960953
-0.044058606 0.066313215 0.115375996 0.1353586 0.10919804 0.007508966 0.12023749 0.021878697
0.07653972 0.20083556 0.17401238 0.0541066 0.17598702 0.19526291 0.050013814 0.16380446
0.17156918 0.030041492 0.06734658 0.16938935 0.045169264 0.05115687 -0.10806095 -0.15247189
-0.13922219 0.024649438 -0.11576974 -0.08181598 -0.059780966 0.06152651 -0.04715517 0.07662672
0.0716869 -0.034025 -0.11959702 -0.009135638 0.019672444 0.12076453 -0.026972208 -0.13019599
-0.09680608 0.043555632 0.021319374 0.2656841 0.16997896 0.23703656 0.27817738 0.0750775
-0.085495465 -0.12665226 -0.20475654 -0.14952345 -0.12218007 -0.14520307 -0.15211396 -0.15963995
0.20057927 0.095797546 0.05186822 0.19695194 0.08259927 0.113686 0.113940425 0.20783617
0.04056389 0.06086101 0.07502992 -0.073665045 0.014278842 -0.075593285 0.008815653 -0.16065945
-0.012989105 0.068091124 0.022620795 0.0025026957 0.033427034 0.23775578 0.13327104 -0.07538567
0.19725062 0.08966229 -0.09355389 0.18904625 0.1487673 -0.086214654 0.20242053 0.041818425
-0.028633855 0.22090717 0.024001887 -0.04912712 -0.038471635 -0.071874045 0.09381771 -0.11219558
0.00989759 -0.008207293 0.005523696 -0.1372312 0.04258967 -0.013584289 -0.06602543 0.107462265
0.030251386 -0.017841311 0.044268005 -0.096219964 0.09056577 0.0895383 0.12394503 0.103532046
-0.059337392 0.24328196 0.11294111 -0.018192098 0.29114312 0.0017331335 0.030916609 0.062777996
0.13010582 0.12887767 -0.0892595 0.07531759 -0.002124904 -0.19727837 0.09072907 -0.0025973637
0.104244314 0.018399782 0.07002378 0.051149398 0.011604488 0.01531605 0.009170339 0.124257155
0.005067606 0.061445773 -0.07580053 -0.03834636 -0.09583997 -0.0009223813 0.027890045 -0.11757465
-0.058971226 0.123428695 0.08630204 0.022390312 0.0347516 0.0999629 -0.11967264 -0.0020607053
0.052120775 -0.072369255 -0.121473506 0.046443608 0.11140066 0.019412775 0.080155425 -0.0364449
-0.09911961 0.083662935 -0.036683835 -0.03649429 0.113098495 0.0285557 -0.059652485 -0.11231088
-0.08122398 -0.037439585 -0.06547915 -0.0006267625 0.08684345 0.012619313 0.059322756 -0.032234333
-0.044955518 0.02158447 0.16507465 -0.055280987 -0.100659646 0.13998929 0.06896789 0.044586185
0.0033005169 0.08663883 0.10916656 0.1410433 -0.02122754 -0.035282124 -0.071385175 -0.08052685
0.1325129 0.15484059 0.028595595 -0.018083826 0.010134555 0.0024345028 -0.0038194903 0.017207671
-0.1765138 -0.14442165 -0.18655524 -0.03912718 -0.14238644 -0.20667136 0.1322751 -0.0123449685
0.117741674 0.0837679 -0.04689942 0.11309062 0.030390892 -0.002984999 -0.05279618 0.0858959
0.104173444 -0.07678018 -0.24470139 -0.16086881 -0.28266287 -0.09618643 -0.081927165 -0.17532761
0.15134427 0.1279755 -0.05015529 -0.15538594 -0.11963136 -0.1640565 -0.28070152 -0.26381364
-0.28905755 -0.010574738 -0.11724243 -0.17362353 0.117729925 0.12578383 0.14950074 0.018854987
00000000: 2335 043e 556a 5a3e 92d1 583e f445 0e3e
00000010: 17da 543e 78cc 3f3e a004 7f3d 7076 873d
00000020: 9b73 5abc 175e 8a3d 91cb afbd c0a9 d23d
00000030: 6b4e 083b 2f76 8bbd 1511 8e3d 2785 a3bc
00000040: cc76 34bd 39cf 873d 404a ec3d 729b 0a3e
00000050: 39a3 df3d c60d f63b 133f f63d f43a b33c
00000060: dbc0 9c3d d6a7 4d3e 4d30 323e e29e 5d3d
00000070: f135 343e 00f3 473e 49db 4c3d 5bbc 273e
00000080: d5af 2f3e 9319 f63c 01ed 893d 6774 2d3e
00000090: 6803 393d de89 513d 0f4f ddbd 9721 1cbe
000000a0: 4390 0ebe 9eed c93c af18 edbd 238f a7bd
000000b0: e3dc 74bd 3903 7c3d c825 41bd 78ee 9c3d
000000c0: 95d0 923d cc5d 0bbd 48ef f4bd a5ad 15bc
000000d0: 1b28 a13c 6553 f73d d2f4 dcbc 1952 05be
000000e0: 4442 c6bd 6467 323d f8a5 ae3c bf07 883e
000000f0: f70e 2e3e b6b9 723e 446d 8e3e 3bc2 993d
00000100: 3f18 afbd 21b1 01be b3ab 51be ad1c 19be
00000110: 8b39 fabd 1db0 14be c3c3 1bbe a878 23be
00000120: a764 4d3e 8131 c43d c573 543d c5ad 493e
00000130: ce29 a93d 35d4 e83d 9959 e93d 01d3 543e
00000140: 5226 263d 6549 793d 49a9 993d b3dd 96bd
00000150: cef1 693c a7d0 9abd 876f 103c e983 24be
00000160: 41d0 54bc 5c73 8b3d 3f4f b93c 4404 243b
00000170: c9ea 083d 4076 733e 3478 083e cd63 9abd
00000180: 11fc 493e dda0 b73d 2f99 bfbd 5795 413e
00000190: 7556 183e 4f91 b0bd 5447 4f3e cc49 2b3d
000001a0: 8c91 eabc 7d35 623e 9b9f c43c 8539 49bd
000001b0: 6f94 1dbd b332 93bd 8023 c03d ccc6 e5bd
000001c0: 8029 223c e277 06bc 1f00 b53b 5686 0cbe
000001d0: 8172 2e3d a390 5ebc 5738 87bd 2d15 dc3d
000001e0: c1d1 f73c f127 92bc 5e52 353d f90e c5bd
000001f0: 8c7a b93d db5f b73d e4d6 fd3d 9c08 d43d
00000200: c40b 73bd e81e 793e ab4d e73d 9807 95bc
00000210: b610 953e 4f2a e33a d444 fd3c c091 803d
00000220: 763a 053e 82f8 033e afcd b6bd 1c40 9a3d
00000230: f941 0bbb 5703 4abe 2ad0 b93d 8838 2abb
00000240: 0b7e d53d 24bb 963c a168 8f3d 0882 513d
00000250: c020 3e3c 2bf0 7a3c 313f 163c 897a fe3d
00000260: 290e a63b 90ae 7b3d 4f3d 9bbd 1311 1dbd
00000270: bf47 c4bd f6cb 71ba aa79 e43c faca f0bd
00000280: d08b 71bd 2fc8 fc3d 20bf b03d e36b b73c
00000290: b257 0e3d 59b9 cc3d ee16 f5bd e60c 07bb
000002a0: 987c 553d 5536 94bd 1ac7 f8bd a73b 3e3d
000002b0: 0726 e43d 8a07 9f3c 8728 a43d 3f47 15bd
000002c0: 39ff cabd 7957 ab3d ca41 16bd 097b 15bd
000002d0: 2fa0 e73d a5ed e93c 2a56 74bd 3f03 e6bd
000002e0: c258 a6bd 405a 19bd ef19 86bd 524d 24ba
000002f0: fbda b13d 3cc1 4e3c 6bfc 723d 2608 04bd
00000300: 4723 38bd ead1 b03c 5409 293e 516e 62bd
00000310: a526 cebd 5a59 0f3e 0a3f 8d3d 01a0 363d
00000320: 7c4d 583b b36f b13d b892 df3d a86d 103e
00000330: 61e5 adbc fd83 10bd 6432 92bd 43eb a4bd
00000340: 76b1 073e 888e 1e3e 4f41 ea3c 8824 94bc
00000350: 680b 263c 2e8c 1f3b 6a50 7abb 1af7 8c3c
00000360: 09c0 34be 45e3 13be 5608 3fbe d243 20bd
00000370: c0cd 11be a8a1 53be 2073 073e 8d42 4abc
00000380: 8c22 f13d 818e ab3d 9b19 40bd 0e9c e73d
00000390: 52f6 f83c f99f 43bb cf40 58bd 31ea af3d
000003a0: e358 d53d ed3e 9dbd 0093 7abe cbba 24be
000003b0: 30b9 90be 64fd c4bd 6ec9 a7bd 1589 33be
000003c0: fef9 1a3e 020c 033e a26f 4dbd 7e1d 1fbe
000003d0: 4901 f5bd 6dfe 27be 1cb8 8fbe 9512 87be
000003e0: 5aff 93be aa41 2dbc cd1c f0bd 5eca 31be
000003f0: 631c f13d 7acd 003e b916 193e c675 9a3c

conv2.bias f4 [16]
-0.024993189 -0.09058883 -0.10649082 0.035286635 -0.06412854 -0.080227256 0.009046336 0.14190814
0.084526174 0.022109682 -0.048312902 0.14410317 -0.12143482 -0.09592322 0.013786811 -0.09715793
00000000: 84be ccbc a386 b9bd dc17 dabd b888 103d
00000010: d355 83bd 304e a4bd 1537 143c 5e50 113e
00000020: 0f1c ad3d 5d1f b53c c0e3 45bd c88f 133e
00000030: d2b2 f8bd 6573 c4bd 14e2 613c bdfa c6bd

conv3.weight f4 [32, 16, 3, 3]
-0.2114967 -0.474324 -0.47231057 -0.01384694 -0.15962034 -0.13013697 0.34268975 0.31211072
0.25868168 -0.13969435 -0.12065653 -0.14440838 0.04607786 -0.18829829 -0.033063978 0.1428852
0.18659043 0.17826854 -0.16396876 -0.1335602 -0.17319907 -0.22399735 -0.33849245 -0.2725898
-0.16500027 -0.10615797 0.09568477 0.022037018 -0.119436845 -0.009305278 0.0045565423 0.013172633
-0.011328603 0.09139007 0.0049412646 -0.07668599 0.036274165 -0.08750123 -0.05224416 -0.12304231
-0.2607169 -0.062141806 0.017220885 -0.009813523 0.03657594 -0.12230781 -0.038625058 -0.042777527
-0.0244657 -0.028907122 -0.0063113477 -0.0029825314 0.15264547 -0.040497363 -0.06422003 -0.0015269865
0.0592688 0.016615959 -0.035109144 0.08641309 0.043850157 0.044680722 0.025656147 -0.005552305
-0.020918828 0.024241982 -0.004693687 -0.10042844 -0.05433403 0.1660051 0.036682796 0.0876976
0.021186113 0.03799306 0.06004345 0.06697745 0.08341465 0.085758135 -0.13829945 -0.09487886
-0.028209148 -0.052860074 0.040087607 -0.08322562 -0.097528294 -0.08378465 0.012163638 0.06688081
0.04903903 -0.0152164595 -0.0604964 0.007930997 0.06425117 0.024394315 0.10762011 -0.023896113
-0.008712537 -0.07808905 -0.040059965 0.0541226 -0.08436963 0.025157506 -0.01333288 -0.0542326
-0.021787597 0.19489259 0.13491534 0.2074336 -0.070413 -0.03716998 -0.055320036 -0.042210586
-0.06347047 0.10123682 0.20109883 0.20261118 0.23844984 0.017056588 0.015900755 0.06961442
0.02680695 0.03238814 -0.082143165 -0.09115199 -0.019947939 -0.030609408 -0.015417922 -0.07155145
0.055794705 0.002992686 0.049011495 0.10923698 0.025519866 -0.016819028 -0.05850037 -0.07082542
-0.06620812 0.04897047 0.009747155 0.07803299 -0.00282831 -0.015972298 0.006794402 -0.04482285
-0.005836337 -0.22943373 -0.049626786 0.0052540363 -0.23437698 -0.09560641 0.16772707 0.15665351
0.07409232 -0.0883825 -0.013988868 0.015543071 -0.07461848 -0.07535839 -0.081949376 0.020765902
-0.016729346 0.031980816 -0.08522682 -0.008861356 0.0042133015 -0.11805417 -0.0029790092 -0.010996491
-0.10146622 -0.031259287 0.024103407 -0.023062319 0.09509652 -0.0060218624 0.101931125 0.05128627
-0.017357152 0.0068218526 0.03096344 -0.019190855 -0.0035330106 -0.092121355 0.087957434 -0.085568264
-0.15199721 -0.049260028 -0.059520423 -0.14260846 -0.089383714 -0.027826471 0.079151385 -0.10591957
0.06752852 -0.006197204 0.0724928 0.034157854 0.06797027 0.1514053 0.046224996 0.035979893
0.02184047 0.08674439 0.0059250225 -0.0037312587 0.07682162 0.08559424 0.10118824 -0.001999175
-0.11180995 -0.10064227 0.09461007 -0.04019876 -0.0008648784 -0.020814333 -0.013520758 -0.07322085
0.07473411 0.046682358 0.048466068 0.036660444 0.086295635 0.09523302 -0.04289321 0.05605542
0.081813 0.03753308 0.053781237 0.027473487 0.017017914 0.050764192 -0.07080657 0.050511207
0.09056909 0.019300822 -0.075984724 -0.041356884 0.014390787 0.025577355 0.042866074 0.08183341
0.018787416 0.03137996 -0.009358537 -0.0119286785 -0.08178837 -0.046573218 -0.056107506 -0.08992759
-0.09350551 0.003981891 0.009323932 0.042353626 -0.12708293 0.019952064 0.012089415 -0.15154591
00000000: 9792 58be 98da f2be b1d2 f1be 47de 62bc
00000010: 8473 23be a042 05be 0875 af3e facc 9f3e
00000020: ed71 843e 090c 0fbe c51a f7bd cadf 13be
00000030: 23bc 3c3d 44d1 40be 186e 07bd 7f50 123e
00000040: 9011 3f3e 078c 363e 6de7 27be 01c4 08be
00000050: 195b 31be 905f 65be e24e adbe e490 8bbe
00000060: d5f5 28be 5a69 d9bd 60f6 c33d fa86 b43c
00000070: 4e9b f4bd 2a75 18bc 0c4f 953b 07d2 573c
00000080: 9b9b 39bc b82a bb3d 55ea a13b 8b0d 9dbd
00000090: 3894 143d d833 b3bd f9fd 55bd 9bfd fbbd
000000a0: af7c 85be 6888 7ebd d012 8d3c e6c8 20bc
000000b0: a7d0 153d 847c fabd 4f35 1ebd 7d37 2fbd
000000c0: 4b6c c8bc a1ce ecbc 6ccf cebb 9376 43bb
000000d0: 184f 1c3e 90e0 25bd cb85 83bd 2a25 c8ba
000000e0: d7c3 723d 311e 883c 9bce 0fbd 59f9 b03d
000000f0: 399c 333d 2203 373d d72c d23c 1cf0 b5bb
00000100: f65d abbc 1f97 c63c 80cd 99bb 6dad cdbd
00000110: 5c8d 5ebd 3efd 293e b340 163d cd9a b33d
00000120: 808e ad3c 9c9e 1b3d 1ff0 753d 792b 893d
00000130: 4dd5 aa3d f6a1 af3d 5f9e 0dbe d94f c2bd
00000140: df16 e7bc ce83 58bd e732 243d 3272 aabd
00000150: eabc c7bd 4997 abbd ff49 473c cef8 883d
00000160: 26dd 483d 754e 79bc 13cb 77bd 03f1 013c
00000170: 1e96 833d 96d6 c73c ef67 dc3d c8c1 c3bc
00000180: 07bf 0ebc 27ed 9fbd eb15 24bd a9af 5d3d
00000190: fcc9 acbd 1d17 ce3c 2772 5abc 0123 5ebd
000001a0: e77b b2bc ec91 473e 3f27 0a3e 7969 543e
000001b0: b134 90bd 8d3f 18bd 4397 62bd 02e5 2cbd
000001c0: cefc 81bd 4055 cf3d daec 4d3e 4e79 4f3e
000001d0: 322c 743e 42ba 8b3c 4d42 823c 0192 8e3d
000001e0: 409a db3c 6da9 043d ad3a a8bd e5ad babd
000001f0: dc69 a3bc 95c0 fabc 749b 7cbc 9189 92bd
00000200: fd88 643d f020 443b 47c0 483d a3b7 df3d
00000210: 0a0f d13c 0fc8 89bc 159e 6fbd eb0c 91bd
00000220: 1f98 87bd 4295 483d 88b2 1f3c c3cf 9f3d
00000230: 2b5b 39bb 56d8 82bc 93a3 de3b 2a98 37bd
00000240: be3e bfbb adf0 6abe 7545 4bbd 0d2a ac3b
00000250: 8500 70be 4bcd c3bd a5c0 2b3e c769 203e
00000260: b7bd 973d e201 b5bd 9131 65bc 5da8 7e3c
00000270: 93d1 98bd 8055 9abd 13d5 a7bd 411d aa3c
00000280: fb0b 89bc 51fe 023d 668b aebd 392f 11bc
00000290: bc0f 8a3b 62c6 f1bd 7b3b 43bb a02a 34bc
000002a0: 86cd cfbd bd09 00bd 8274 c53c 30ed bcbc
000002b0: f7c1 c23d 0b53 c5bb 44c1 d03d 8d11 523d
000002c0: 9630 8ebc d989 df3b 0aa7 fd3c 2436 9dbc
000002d0: 158a 67bb 1faa bcbd 0723 b43d 6a3e afbd
000002e0: 28a5 1bbe e2c4 49bd b0cb 73bd f407 12be
000002f0: cf0e b7bd 57f4 e3bc 1f1a a23d 5cec d8bd
00000300: 654c 8a3d ea11 cbbb 1b77 943d 1be9 0b3d
00000310: ff33 8b3d fe09 1b3e 6c56 3d3d a75f 133d
00000320: c9ea b23c 0ba7 b13d b126 c23b 2288 74bb
00000330: a754 9d3d 084c af3d c83b cf3d 9704 03bb
00000340: 9dfc e4bd 891d cebd edc2 c13d 74a7 24bd
00000350: 02b9 62ba d282 aabc 2b86 5dbc d0f4 95bd
00000360: 320e 993d 0036 3f3d 5b84 463d 4329 163d
00000370: c4bb b03d 8809 c33d cab0 2fbd 5e9a 653d
00000380: 938d a73d 49bc 193d b749 5c3d 1410 e13c
00000390: 2769 8b3c 1dee 4f3d 0903 91bd d7e4 4e3d
000003a0: 497c b93d c21c 9e3c e19d 9bbd d665 29bd
000003b0: 56c7 6b3c 9a87 d13c 5694 2f3d 4698 a73d
000003c0: 11e8 993c 4688 003d 8d54 19bc 8170 43bc
000003d0: a980 a7bd 8fc3 3ebd fcd0 65bd f52b b8bd
000003e0: d17f bfbd 867a 823b 68c3 183c ff7a 2d3d
000003f0: 0722 02be 8372 a33c af12 463c da2e 1bbe

conv3.bias f4 [32]
-0.031034166 0.05039411 -0.067948036 -0.085421726 0.0006039955 0.095902145 -0.05729088 -0.07586658
0.020551283 0.02370954 0.042584147 -0.01912676 0.09860574 0.059925627 0.07800114 0.032678664
-0.072342135 -0.059380315 0.10644856 0.11677366 -0.012085743 -0.0555967 0.013164832 0.0798533
0.09416872 -0.012153226 -0.03775766 0.088561 -0.024975616 0.06870827 0.0866223 -0.041008916
00000000: 5d3b febc 0e6a 4e3d 5728 8bbd 96f1 aebd
00000010: 7455 1e3a 5868 c43d d7a9 6abd f05f 9bbd
00000020: 2a5b a83c 823a c23c b76c 2e3d b9af 9cbc
00000030: cef1 c93d 9374 753d 10bf 9f3d 10da 053d
00000040: 1d28 94bd c638 73bd b401 da3d 0727 ef3d
00000050: 4803 46bc 5eb9 63bd 4fb1 573c 208a a33d
00000060: 88db c03d 531e 47bc c7a7 1abd 785f b53d
00000070: aa99 ccbc ecb6 8c3d 0867 b13d f7f8 27bd

conv4.weight f4 [64, 32, 3, 3]
0.08432127 0.03822933 0.0177134 -0.010108411 0.05181031 0.071000606 -0.08050959 -0.076910146
-0.023498606 0.029587623 -0.02923482 0.02230484 -0.06661617 -0.008875005 -0.04098401 -0.06846405
-0.031522617 0.03592663 -0.01937248 -0.08561073 -0.055774793 -0.030410122 -0.035672393 -0.0019892873
-0.015470513 0.052603588 0.07368587 0.01516571 -0.0036399565 0.008658227 -0.0372922 -0.029236088
0.027563218 -0.056462508 -0.026988339 0.049175378 -0.06396666 0.026024193 0.03298501 -8.380355e-06
0.02366361 0.021001583 -0.00798631 -0.07936982 -0.024368275 0.04180939 0.02564395 0.009920572
0.020212654 0.00039477568 -0.0009751261 -0.051795222 0.06527682 -0.046840943 0.054479394 -0.030524947
0.010095731 -0.051078185 0.003596117 -0.018862462 -0.000100088175 0.01964173 -0.006924857 -0.00048164153
0.015985006 -0.023725715 0.05267308 0.014626533 0.068143 0.06344459 0.09992618 0.0124240285
-0.04722307 0.021220678 -0.0048499093 0.009842258 -0.02300502 -0.022929592 0.0232178 -0.0144214975
0.028297463 0.01875804 0.045417216 -0.02174868 0.024748579 0.0463869 -0.046982557 0.057583693
-0.051974278 0.0042360458 -0.032860257 -0.03572569 -0.020053571 -0.056041673 -0.014204463 -0.074199624
-0.02273283 -0.016734421 -0.010025842 -0.01888679 -0.054938626 -0.014913601 -0.09788188 0.03123041
-0.038542673 0.053350843 0.028953215 0.09538293 0.056677163 -0.03332324 0.01073234 0.020123709
0.017457161 0.053405497 0.079781994 0.010223879 0.0657932 0.08918566 0.09071632 0.05118196
0.010634711 0.027594179 -0.04513223 0.029943623 -0.00853794 0.07540958 -0.0029955711 0.025970401
-0.08714026 -0.0558019 0.07179172 -0.038641892 -0.030506503 0.087940045 0.018716183 -0.016441924
-0.06091295 -0.053290993 0.038801216 0.020793041 0.05184221 -0.039747387 0.074208 -0.008499127
0.02467721 0.028284607 0.05625418 -0.035940446 0.05596851 -0.020671511 0.035573713 -0.039919347
-0.012385026 0.0045097303 -0.06404972 0.015194975 0.004174888 0.028762037 0.0019144515 0.11578845
0.066831164 0.049696572 -0.047317896 0.054359205 0.050935484 0.028648889 -0.015376243 -0.044022314
-0.016461367 -0.10636937 0.03990832 0.039155908 0.01944988 0.00487748 0.021529982 0.08895909
0.058890183 0.026798613 0.016749727 0.00053761643 -0.01194559 0.037145145 0.04780069 0.06873436
0.0006657191 0.06906305 0.01987175 -0.052220017 -0.02106486 -0.021731978 -0.021377109 0.007641326
0.027645826 0.01774272 -0.039987877 0.015488773 0.042407997 0.041375704 0.1007274 0.058265153
0.06531508 0.036104783 0.11681345 0.026601657 -0.0005369696 -0.049670313 -0.049823727 -0.029058566
0.027757183 -0.0050453865 -0.014761899 -0.0627648 0.02241991 -0.06515639 -0.029569715 -0.050202373
0.020053739 0.0042099194 0.056452706 -0.01870976 0.012449568 -0.010883281 -0.031379823 -0.062109496
-0.044114813 0.011939375 -0.029162765 -0.054323502 -0.012634869 -0.025252782 0.025400974 0.0236593
-0.001798506 -0.0346797 -0.018244084 -0.007408038 -0.0033664329 0.057449423 0.08971994 0.038133312
0.050732695 -0.04791732 0.03004157 0.0017415982 -0.07547309 -0.07518946 0.015003499 0.04776464
0.023439 0.00748124 0.11363187 -0.019741552 0.07669979 0.06114344 -0.006054959 -0.020240644
00000000: a1b0 ac3d 5c96 1c3d b11b 913c c09d 25bc
00000010: 0c37 543d c468 913d 36e2 a4bd 1183 9dbd
00000020: 2680 c0bc be61 f23c dc7d efbc a4b8 b63c
00000030: 0f6e 88bd 7868 11bc d9de 27bd e136 8cbd
00000040: dc1d 01bd cd27 133d 09b3 9ebc ae54 afbd
00000050: 1c74 64bd a61e f9bc 371d 12bd b45e 02bb
00000060: 0978 7dbc dc76 573d 9ee8 963d 9979 783c
00000070: 568c 6ebb 3cdb 0d3c b5bf 18bd 8580 efbc
00000080: 42cc e13c 3b45 67bd a616 ddbc 1f6c 493d
00000090: f400 83bd b030 d53c 4a1b 073d 5a99 0cb7
000000a0: 30da c13c 830b ac3c 03d9 02bc a58c a2bd
000000b0: fa9f c7bc 5340 2b3d 4313 d23c e589 223c
000000c0: 0295 a53c e5f9 ce39 9b9f 7fba 3a27 54bd
000000d0: daaf 853d 4adc 3fbd c925 5f3d 740f fabc
000000e0: 9168 253c 5c37 51bd d5ac 6b3b 7385 9abc
000000f0: 6ee6 d1b8 b1e7 a03c e9e9 e2bb d584 fcb9
00000100: fdf2 823c 6e5c c2bc babf 573d 20a4 6f3c
00000110: 8f8e 8b3d 3def 813d 19a6 cc3d 278e 4b3c
00000120: fa6c 41bd fdd6 ad3c fdeb 9ebb 6c41 213c
00000130: 0675 bcbc d7d6 bbbc 4133 be3c 2548 6cbc
00000140: 15d0 e73c 76aa 993c 6707 3a3d 4a2a b2bc
00000150: 88bd ca3c 3100 3e3d c870 40bd e1dc 6b3d
00000160: fbe2 54bd 87ce 8a3b 7a98 06bd 1a55 12bd
00000170: 6347 a4bc f48b 65bd d6b9 68bc f9f5 97bd
00000180: 333a babc a016 89bc 6e43 24bc 78b8 9abc
00000190: 5307 61bd 2d58 74bc 4c76 c8bd ebd6 ff3c
000001a0: ecde 1dbd 6a86 5a3d 4b2f ed3c 2058 c33d
000001b0: 5026 683d f37d 08bd b2d6 2f3c 7ada a43c
000001c0: 5202 8f3c b9bf 5a3d be64 a33d 0e82 273c
000001d0: 96be 863d f9a6 b63d 7ac9 b93d 2da4 513d
000001e0: 363d 2e3c 300d e23c 93dc 38bd 544c f53c
000001f0: b7e2 0bbc 5670 9a3d 5851 44bb e1bf d43c
00000200: 9876 b2bd 8890 64bd 8a07 933d f646 1ebd
00000210: c6e8 f9bc e919 b43d ae52 993c 37b1 86bc
00000220: dc7f 79bd a847 5abd 06ee 1e3d 2b56 aa3c
00000230: 7f58 543d 28ce 22bd 5dfa 973d ec3f 0bbc
00000240: dc27 ca3c 1fb5 e73c c86a 663d 4a36 13bd
00000250: 3d3f 653d 4d57 a9bc beb5 113d 7882 23bd
00000260: 90ea 4abc 5cc6 933b 802c 83bd 58f4 783c
00000270: 80cd 883b 5d9e eb3c 55ee fa3a 7f22 ed3d
00000280: c7de 883d a28e 4b3d 69d0 41bd c2a7 5e3d
00000290: baa1 503d 13b1 ea3c a3ec 7bbc be50 34bd
000002a0: fdd9 86bc 2fd8 d9bd e876 233d f261 203d
000002b0: 5b55 9f3c 45d3 9f3b a55f b03c 2f30 b63d
000002c0: d536 713d c488 db3c b936 893c d4ee 0c3a
000002d0: 70b7 43bc 8225 183d a8ca 433d 9ac4 8c3d
000002e0: a783 2e3a ee70 8d3d 15ca a23c a8e4 55bd
000002f0: 3790 acbc 4307 b2bc 0c1f afbc 1764 fa3b
00000300: 8079 e23c 2e59 913c 54ca 23bd 9fc4 7d3c
00000310: 02b4 2d3d 9279 293d 2b4a ce3d 71a7 6e3d
00000320: eac3 853d 9ce2 133d e43b ef3d b8eb d93c
00000330: 6bc3 0cba 1973 4bbd f713 4cbd 3b0c eebc
00000340: 0863 e33c c553 a5bb e4db 71bc d58a 80bd
00000350: f6a9 b73c b770 85bd 303c f2bc 01a1 4dbd
00000360: bd47 a43c 5df3 893b f43a 673d 3645 99bc
00000370: 46f9 4b3c ca4f 32bc 2188 00bd 8766 7ebd
00000380: bcb1 34bd 5e9d 433c c0e6 eebc 5282 5ebd
00000390: 7b02 4fbc ecde cebc b415 d03c 26d1 c13c
000003a0: d9bb ebba 4d0c 0ebd 9e74 95bc 20bf f2bb
000003b0: 5f9f 5cbb 1650 6b3d 17bf b73d ad31 1c3d
000003c0: 16cd 4f3d f444 44bd bd19 f63c 5746 e43a
000003d0: a391 9abd eefc 99bd 3cd1 753c dba4 433d
000003e0: 2503 c03c 3125 f53b d3b7 e83d 09b9 a1bc
000003f0: c814 9d3d 8b71 7a3d ad68 c6bb b5cf a5bc

conv4.bias f4 [64]
0.003189569 0.02699934 -0.0077089174 -0.049004637 -0.015447384 -0.047100876 -0.02503586 0.05767469
-0.07160207 -0.027314298 -0.061686195 0.008702148 0.05029669 0.041145965 0.049330156 0.0057828818
-0.037473034 -0.049766276 -0.058711793 -0.052364204 0.029945498 0.016266135 0.054123428 0.0736396
0.04664132 -0.07523445 0.037963346 -0.0052334093 0.004200118 -0.035946574 -0.030395932 -0.039068155
0.07244521 0.021727612 0.04332682 0.060012843 -0.032279916 -0.0047684005 0.003685495 0.046915986
0.040222343 0.08833904 0.049632497 0.014239881 0.0005785504 -0.0014688293 -0.0077126576 -0.022168288
0.04364188 0.05932604 0.0498458 -0.00016038865 0.06442584 0.018021973 0.02969701 0.03655887
-0.024066549 0.034867726 -0.06045097 -0.022934897 0.0009163911 -0.030759105 0.0055671707 -0.066467196
00000000: 1708 513b b82d dd3c 169b fcbb 16b9 48bd
00000010: 0617 7dbc d9ec 40bd 0118 cdbc 4c3c 6c3d
00000020: 1ba4 92bd 3cc2 dfbc aaaa 7cbd 7493 0e3c
00000030: e703 4e3d ac88 283d 6b0e 4a3d 547e bd3b
00000040: 537d 19bd b9d7 4bbd c77b 70bd d97b 56bd
00000050: 4350 f53c 8f40 853c 87b0 5d3d 5cd0 963d
00000060: f80a 3f3d 8514 9abd 747f 1b3d 057d abbb
00000070: 25a1 893b b73c 13bd e400 f9bc ee05 20bd
00000080: 275e 943d 1bfe b13c 7777 313d 07d0 753d
00000090: f237 04bd 3e40 9cbb 5888 713b fa2a 403d
000000a0: 2fc0 243d 19eb b43d 724b 4b3d 644e 693c
000000b0: dca9 173a bc85 c0ba 76ba fcbb 459a b5bc
000000c0: d4c1 323d ddff 723d 1c2b 4c3d 002e 28b9
000000d0: b2f1 833d d1a2 933c 2547 f33c c1be 153d
000000e0: 3627 c5bc 76d1 0e3d 709b 77bd f7e1 bbbc
000000f0: f739 703a 85fa fbbc d06c b63b f41f 88bd

fc1.weight f4 [100, 256]
0.048047602 0.057789523 -0.0017106179 0.009799267 -0.022565037 -0.0826361 0.016920073 -0.004372637
-0.014020765 0.0959332 -0.17084716 -0.14411633 -0.042062744 0.06672188 -0.051259704 0.01349365
0.09193956 0.019297441 -0.05739115 0.0169839 -0.04799489 -0.035439074 -0.016706403 0.0237681
-0.0073753227 0.0018248733 -0.0745107 -0.028954767 -0.07526128 -0.06246639 0.026408665 -0.0470275
-0.03089952 0.014450288 0.06398133 -0.0078107673 -0.030425679 -0.00060708437 0.029822553 0.009493798
0.0125803705 0.09020268 -0.04382562 -0.11554345 -0.06520799 0.113571875 -0.06344395 -0.08603208
-0.06369149 0.13238649 0.037220046 0.0031290485 -0.07111979 0.05731526 0.02900576 0.051036216
0.0055359015 0.049913235 0.050049223 -0.006827642 -0.04259137 0.034824707 0.089848995 0.058265388
-0.07008985 0.012402646 -0.0030293716 0.10882747 0.121749 -0.06464616 -0.008469397 -0.0042841514
-0.028989648 0.03072211 -0.050013006 -0.018926531 0.024201253 0.011531442 0.09444872 0.12103992
-0.09231828 0.059305586 0.009020343 0.05333992 0.02671428 0.006842738 0.0939739 0.0127620455
-0.010799966 0.021794075 0.08997523 0.09061783 0.019534867 0.038845602 -0.12007083 0.03252206
0.015844626 0.044369843 -0.00065510266 -0.042495325 0.034771584 -0.04176145 0.07881545 0.03480428
-0.03482852 0.06078608 0.025000501 -0.080041595 -0.06617008 -0.030530643 0.0075082835 0.021469476
0.04711583 -0.0056690495 -0.0511992 0.0773178 0.08278132 -0.064467154 -0.0155269895 0.13282152
-0.0075659477 -0.04085163 0.048230663 -0.024277449 0.102402195 0.03469234 -0.080855995 0.05941235
-0.025019187 -0.017901255 -0.003076272 0.08977157 -0.057164565 0.047449145 -0.0012307138 -0.05704195
0.0067224344 0.08483503 -0.13253634 0.06644727 0.02539744 -0.06414064 0.039177045 -0.008345476
0.0622378 -0.034083292 0.05289986 -0.008483569 0.05981116 -0.08805869 0.0045786137 -0.08813487
0.061732266 -0.061949782 -0.025956511 0.042567484 -0.042680413 -0.030505676 -0.043853767 -0.012753158
0.06547315 0.04849538 -0.022015164 -0.07525806 0.040694878 -0.016769426 -0.040588193 -0.074332744
-0.030082138 0.05209716 0.06261681 -0.04582575 0.029415445 0.0608823 -0.011820435 -0.059097588
-0.09083954 -0.011960808 0.09807519 0.037233893 0.015577787 -0.048353318 -0.031134542 0.06655222
-0.057911467 -0.047337517 -0.034096487 0.02121403 0.011221111 0.075779796 -0.01426326 0.004752192
0.06606024 0.034088235 -0.041182026 -0.06431543 -0.0048990897 0.05418142 0.04334459 -0.030960584
0.09965909 0.035108507 -0.0045116865 -0.05285875 -0.10827051 0.09664567 -0.1477898 -0.038701016
-0.049264155 -0.041552767 -0.06639631 0.0034155603 -0.031042408 -0.05043452 0.06832338 0.05841033
-0.037196286 -0.00196007 0.16279924 0.027150905 -0.01712732 -0.0063623567 0.050879844 0.0545717
-0.0046914928 0.021146161 0.0034789443 -0.017416678 -0.05383094 -0.005181964 0.054212667 -0.0034509387
0.03694967 0.0021169458 0.061511938 0.0709127 0.027075054 0.035139978 -0.034822475 0.13315229
0.01598389 -0.018905556 0.06119757 -0.010330805 0.05582095 0.020857526 -0.019210031 -0.028015155
-0.028016124 0.02911704 -0.047177017 -0.0023671025 0.013891531 -0.05585008 -0.08292719 0.0931529
00000000: 90cd 443d b5b4 6c3d d036 e0ba 1b8d 203c
00000010: 50da b8bc 1e3d a9bd f79b 8a3c 5648 8fbb
00000020: 5ab7 65bc a078 c43d 8ff2 2ebe 3b93 13be
00000030: fc49 2cbd 7ba5 883d b2f5 51bd 7814 5d3c
00000040: cf4a bc3d ab15 9e3c fc12 6bbd d221 8b3c
00000050: 4a96 44bd 9028 11bd dedb 88bc 52b5 c23c
00000060: b1ac f1bb 9630 ef3a 1199 98bd 8c32 edbc
00000070: 9622 9abd c2dc 7fbd fc56 d83c e89f 40bd
00000080: fd20 fdbc e7c0 6c3c a508 833d 77f1 ffbb
00000090: 463f f9bc be24 1fba 6d4e f43c e08b 1b3c
000000a0: e61d 4e3c 2fbc b83d 7e82 33bd 0ba2 ecbd
000000b0: c48b 85bd 5f98 e83d e7ee 81bd 9631 b0bd
000000c0: af70 82bd 5390 073e 0c74 183d b910 4d3b
000000d0: 41a7 91bd 68c3 6a3d 7d9d ed3c 5a0b 513d
000000e0: 8266 b53b d271 4c3d 6a00 4d3d 6aba dfbb
000000f0: 4a74 2ebd 5aa4 0e3d c002 b83d b0a7 6e3d
00000100: 448b 8fbd 7834 4b3c 6c88 46bb f0e0 de3d
00000110: 8a57 f93d 3565 84bd 3ac3 0abc 1162 8cbb
00000120: b37b edbc efac fb3c 70da 4cbd d00b 9bbc
00000130: b541 c63c 60ee 3c3c 556e c13d c7e3 f73d
00000140: 5e11 bdbd 6aea 723d 10ca 133c f67a 5a3d
00000150: e8d7 da3c 0c39 e03b 6375 c03d e617 513c
00000160: 57f2 30bc 7d89 b23c ef44 b83d d795 b93d
00000170: 9607 a03c 911c 1f3d b2e7 f5bd da35 053d
00000180: 97cc 813c 27bd 353d 32bb 2bba 940f 2ebd
00000190: a66c 0e3d 0e0e 2bbd ff69 a13d ef8e 0e3d
000001a0: 5aa8 0ebd d3fa 783d dacd cc3c d9ec a3bd
000001b0: 2e84 87bd 661b fabc 0c08 f63b c1e0 af3c
000001c0: 87fc 403d 6fc3 b9bb 41b6 51bd cb58 9e3d
000001d0: 4189 a93d 5b07 84bd ea64 7ebc 5d02 083e
000001e0: c5eb f7bb 0a54 27bd 848d 453d 80e1 c6bc
000001f0: 3eb8 d13d 8e19 0e3d d497 a5bd 5d5a 733d
00000200: 0af5 ccbc a7a5 92bc 489b 49bb 28da b73d
00000210: 6425 6abd 095a 423d e74f a1ba d2a4 69bd
00000220: de47 dc3b fdbd ad3d 9bb7 07be 8215 883d
00000230: 4b0e d03c 2b5c 83bd 1c78 203d 77bb 08bc
00000240: 10ed 7e3d ec9a 0bbd 86ad 583d abfe 0abc
00000250: 8cfc 743d 1d58 b4bd 3208 963b 0e80 b4bd
00000260: f9da 7c3d 0ebf 7dbd c0a2 d4bc 3e5b 2e3d
00000270: a8d1 2ebd 0ae7 f9bc 02a0 33bd 9ff2 50bc
00000280: c916 863d 17a3 463d 2559 b4bc e620 9abd
00000290: acaf 263d 0960 89bc ce3f 26bd c43b 98bd
000002a0: d16e f6bc d563 553d 3e3d 803d c8b3 3bbd
000002b0: a9f8 f03c b85f 793d 7faa 41bc 5010 72bd
000002c0: 150a babd 44f7 43bc a5db c83d 9182 183d
000002d0: f939 7f3c 210e 46bd de0d ffbc 884c 883d
000002e0: 9334 6dbd fce4 41bd c2a8 0bbd 0cc9 ad3c
000002f0: c0d8 373c 7032 9b3d 73b0 69bc 47b8 9b3b
00000300: 974a 873d 1ba0 0b3d 7cae 28bd cfb7 83bd
00000310: 8b88 a0bb 56ed 5d3d 198a 313d 0da1 fdbc
00000320: 111a cc3d f0cd 0f3d c5d6 93bb 6b82 58bd
00000330: eebc ddbd 2aee c53d 3656 17be f584 1ebd
00000340: 36c9 49bd 3c33 2abd cafa 87bd 98d7 5f3b
00000350: a64c febc 6d94 4ebd 21ed 8b3d ac3f 6f3d
00000360: 225b 18bd 8574 00bb d8b4 263e 936b de3c
00000370: 984e 8cbc 517b d0bb 6267 503d 9386 5f3d
00000380: 18bb 99bb b73a ad3c 00ff 633b 6cad 8ebc
00000390: d57d 5cbd 77cd a9bb 1a0e 5e3d 2529 62bb
000003a0: 8a58 173d 75bc 0a3b f1f3 7b3d ad3a 913d
000003b0: 81cc dd3c f0ee 0f3d 03a2 0ebd 1359 083e
000003c0: a6f0 823c d3df 9abc 4eaa 7a3d 8942 29bc
000003d0: 82a4 643d 67dd aa3c 5b5e 9dbc 0a80 e5bc
000003e0: 1282 e5bc dc86 ee3c b03c 41bd 6421 1bbb
000003f0: 4e99 633c 0ec3 64bd bbd5 a9bd f3c6 be3d

fc1.bias f4 [100]
0.012529745 -0.028545517 0.038177144 0.052866142 -0.011866997 0.061707444 0.09619176 -0.010689695
0.013267439 0.083722286 -0.01829345 0.086637 -0.028606625 0.038479567 -0.045436233 -0.0078494325
-0.007266498 -0.015857704 0.07422031 -0.03319783 -0.013649045 -0.020647721 0.051222716 0.068371125
-0.032672636 -0.039835937 0.07016953 -0.046330247 0.028235137 0.07979212 0.016699556 0.060829096
0.009421127 -0.02024804 -0.020865662 0.053859163 0.061258074 0.05891047 0.06590413 -0.023323914
-0.046533722 0.04781656 0.033237975 0.061959974 0.022334041 0.020483263 -0.018034723 0.046106532
0.05079351 0.08891372 0.08464478 0.06514293 -0.025697725 -0.053655565 0.007972113 -0.0012975384
0.022871668 0.092066675 0.084860936 0.03894301 -0.033875357 0.031216107 -0.058720767 0.058274657
0.043850675 0.007640576 -0.05324184 0.013515511 0.008786127 -0.053284913 -0.015298087 0.0743458
0.021750491 -0.005638557 0.06671257 -0.026761647 -0.02843869 0.085579306 -0.056489896 0.07361106
-0.044690367 0.031214628 -0.051557656 0.016430559 -0.016746696 0.068200946 -0.02649552 0.06192481
0.08766125 0.049198642 -0.030590143 0.060370326 0.04411969 0.026188243 -0.07678336 0.097181216
0.006737898 -0.026638772 -0.03798141 -0.0064192507
00000000: 8f49 4d3c 4ad8 e9bc a35f 1c3d 2b8a 583d
00000010: cb6d 42bc f2c0 7c3d 2f00 c53d d523 2fbc
00000020: ac5f 593c 9776 ab3d 25dc 95bc bd6e b13d
00000030: 7158 eabc c09c 1d3d 581b 3abd e89a 00bc
00000040: ce1b eebb 04e8 81bc d100 983d 73fa 07bd
00000050: 3ea0 5fbc 6925 a9bc e9ce 513d 2906 8c3d
00000060: bed3 05bd 022b 23bd 0bb5 8f3d c9c4 3dbd
00000070: 604d e73c 0d6a a33d 82cd 883c ee27 793d
00000080: 125b 1a3c 38df a5bc 77ee aabc 6d9b 5c3d
00000090: bfe9 7a3d 1b4c 713d bff8 863d cb11 bfbc
000000a0: 259a 3ebd 4cdb 433d 8b24 083d bec9 7d3d
000000b0: e1f5 b63c 84cc a73c 8ebd 93bc 34da 3c3d
000000c0: db0c 503d 6518 b63d 3e5a ad3d a869 853d
000000d0: 0984 d2bc f0c5 5bbd 779d 023c 2a12 aaba
000000e0: 5d5d bb3c 748d bc3d 92cb ad3d b582 1f3d
000000f0: e3c0 0abd ecb8 ff3c 3085 70bd 68b1 6e3d
00000100: c49c 333d cc5d fa3b 1e14 5abd 2970 5d3c
00000110: b0f3 0f3c 4841 5abd d4a4 7abc 9c42 983d
00000120: 162e b23c a5c3 b8bb 9aa0 883d 3e3b dbbc
00000130: 41f8 e8bc 3444 af3d f361 67bd 65c1 963d
00000140: 3f0d 37bd d2b5 ff3c 1f2e 53bd 6199 863c
00000150: 5e30 89bc f0ac 8b3d 220d d9bc dfa4 7d3d
00000160: be87 b33d 8484 493d 2e98 fabc e046 773d
00000170: d9b6 343d ba88 d63c 9840 9dbd f206 c73d
00000180: 96c9 dc3b 8e39 dabc 6592 1bbd 9458 d2bb

fc2.weight f4 [1, 100]
0.24885716 -0.29236764 0.34227213 0.27610725 0.29511002 0.21650903 -0.2918081 0.24104536
0.21804406 -0.26502335 -0.21707082 -0.32091516 0.26705644 0.30297303 -0.07320038 -0.09017309
-0.21339756 0.3426971 -0.31635448 0.1679005 0.27269325 -0.05145791 0.29131696 -0.32449034
-0.08732804 -0.030020108 -0.40654758 0.18801215 0.29758528 -0.3625002 -0.3009346 0.28172326
-0.308434 0.25741202 -0.1797551 0.29236132 -0.35845587 -0.3115403 -0.33720788 -0.05072132
-0.025117356 0.3114336 0.23284799 -0.2169017 -0.38319582 0.23301466 0.2474525 -0.30048168
-0.3057103 -0.31269416 -0.28299913 -0.2766297 -0.3456465 0.19035797 0.2116083 -0.0535595
-0.30606776 -0.23015495 -0.29561415 0.25779015 -0.21097815 -0.2750045 -0.056467544 -0.25386465
0.21791595 0.23626214 0.16329935 -0.32256672 0.37728056 -0.066968724 -0.3623429 0.31578827
-0.25330424 -0.19987468 0.29529437 0.27153605 -0.03441638 -0.2594637 -0.067551814 -0.40951845
-0.059361164 -0.3294506 0.168811 0.20880842 -0.012055483 -0.23901454 0.36257318 -0.27344945
-0.27172902 -0.28817084 0.090895794 0.20197856 -0.20380127 0.23027001 0.17917071 -0.29168963
0.13884652 0.057552405 -0.116217785 -0.06059686
00000000: 69d4 7e3e 36b1 95be 4b3e af3e ee5d 8d3e
00000010: a918 973e 8bb4 5d3e df67 95be 98d4 763e
00000020: f146 5f3e 24b1 87be d047 5ebe fe4e a4be
00000030: 9fbb 883e 481f 9b3e 15ea 95bd abac b8bd
00000040: e484 5abe ff75 af3e 37f9 a1be 1cee 2b3e
00000050: 739e 8b3e 88c5 52bd 7f27 953e 9923 a6be
00000060: 0bd9 b2bd bbec f5bc 0127 d0be 4286 403e
00000070: 195d 983e a099 b9be 1a14 9abe 083e 903e
00000080: 10eb 9dbe 82cb 833e b911 38be 62b0 953e
00000090: 8787 b7be 3682 9fbe 83a6 acbe 29c1 4fbd
000000a0: eac2 cdbc 3a74 9f3e b46f 6e3e 7b1b 5ebe
000000b0: 3e32 c4be 659b 6e3e 3064 7d3e bcd8 99be
000000c0: 0f86 9cbe 7319 a0be 43e5 90be 68a2 8dbe
000000d0: 94f8 b0be 33ed 423e d9af 583e 3561 5bbd
000000e0: eab4 9cbe bdad 6bbe bd5a 97be 12fd 833e
000000f0: a80a 58be 64cd 8cbe 834a 67bd 8cfa 81be
00000100: 5c25 5f3e b4ee 713e f237 273e 7727 a5be
00000110: eb2a c13e e626 89bd 0285 b9be 00af a13e
00000120: 18b1 81be f3ab 4cbe d330 973e c606 8b3e
00000130: 31f8 0cbd 6dd8 84be 9b58 8abd 67ac d1be
00000140: b124 73bd c0ad a8be cadc 2c3e e0d1 553e
00000150: 5c84 45bc 3ac0 74be 31a3 b93e 9101 8cbe
00000160: 1120 8bbe 218b 93be 9327 ba3d 78d3 4e3e
00000170: 48b1 50be e7cb 6b3e 8778 373e 5858 95be
00000180: c82d 0e3e 12bc 6b3d 9703 eebd 6a34 78bd
